node {
  name: "Placeholder"
  op: "Placeholder"
  attr {
    key: "dtype"
    value {
      type: DT_FLOAT
    }
  }
  attr {
    key: "shape"
    value {
      shape {
        dim {
          size: -1
        }
        dim {
          size: -1
        }
        dim {
          size: -1
        }
        dim {
          size: 3
        }
      }
    }
  }
}
node {
  name: "img_mean"
  op: "Const"
  attr {
    key: "dtype"
    value {
      type: DT_FLOAT
    }
  }
  attr {
    key: "value"
    value {
      tensor {
        dtype: DT_FLOAT
        tensor_shape {
          dim {
            size: 1
          }
          dim {
            size: 1
          }
          dim {
            size: 1
          }
          dim {
            size: 3
          }
        }
        tensor_content: ")\\\367B\331\216\351B\305\340\317B"
      }
    }
  }
}
node {
  name: "sub"
  op: "Sub"
  input: "Placeholder"
  input: "img_mean"
  attr {
    key: "T"
    value {
      type: DT_FLOAT
    }
  }
}
node {
  name: "resnet_v1_50/Pad/paddings"
  op: "Const"
  attr {
    key: "dtype"
    value {
      type: DT_INT32
    }
  }
  attr {
    key: "value"
    value {
      tensor {
        dtype: DT_INT32
        tensor_shape {
          dim {
            size: 4
          }
          dim {
            size: 2
          }
        }
        tensor_content: "…"
      }
    }
  }
}
node {
  name: "resnet_v1_50/Pad"
  op: "Pad"
  input: "sub"
  input: "resnet_v1_50/Pad/paddings"
  attr {
    key: "T"
    value {
      type: DT_FLOAT
    }
  }
  attr {
    key: "Tpaddings"
    value {
      type: DT_INT32
    }
  }
}
node {
  name: "resnet_v1_50/conv1/weights/Initializer/truncated_normal/shape"
  op: "Const"
  attr {
    key: "_class"
    value {
      list {
        s: "loc:@resnet_v1_50/conv1/weights"
      }
    }
  }
  attr {
    key: "dtype"
    value {
      type: DT_INT32
    }
  }
  attr {
    key: "value"
    value {
      tensor {
        dtype: DT_INT32
        tensor_shape {
          dim {
            size: 4
          }
        }
        tensor_content: "\007\000\000\000\007\000\000\000\003\000\000\000@\000\000\000"
      }
    }
  }
}
node {
  name: "resnet_v1_50/conv1/weights/Initializer/truncated_normal/mean"
  op: "Const"
  attr {
    key: "_class"
    value {
      list {
        s: "loc:@resnet_v1_50/conv1/weights"
      }
    }
  }
  attr {
    key: "dtype"
    value {
      type: DT_FLOAT
    }
  }
  attr {
    key: "value"
    value {
      tensor {
        dtype: DT_FLOAT
        tensor_shape {
        }
        float_val: 0.0
      }
    }
  }
}
node {
  name: "resnet_v1_50/conv1/weights/Initializer/truncated_normal/stddev"
  op: "Const"
  attr {
    key: "_class"
    value {
      list {
        s: "loc:@resnet_v1_50/conv1/weights"
      }
    }
  }
  attr {
    key: "dtype"
    value {
      type: DT_FLOAT
    }
  }
  attr {
    key: "value"
    value {
      tensor {
        dtype: DT_FLOAT
        tensor_shape {
        }
        float_val: 0.13299275934696198
      }
    }
  }
}
node {
  name: "resnet_v1_50/conv1/weights/Initializer/truncated_normal/TruncatedNormal"
  op: "TruncatedNormal"
  input: "resnet_v1_50/conv1/weights/Initializer/truncated_normal/shape"
  attr {
    key: "T"
    value {
      type: DT_INT32
    }
  }
  attr {
    key: "_class"
    value {
      list {
        s: "loc:@resnet_v1_50/conv1/weights"
      }
    }
  }
  attr {
    key: "dtype"
    value {
      type: DT_FLOAT
    }
  }
  attr {
    key: "seed"
    value {
      i: 0
    }
  }
  attr {
    key: "seed2"
    value {
      i: 0
    }
  }
}
node {
  name: "resnet_v1_50/conv1/weights/Initializer/truncated_normal/mul"
  op: "Mul"
  input: "resnet_v1_50/conv1/weights/Initializer/truncated_normal/TruncatedNormal"
  input: "resnet_v1_50/conv1/weights/Initializer/truncated_normal/stddev"
  attr {
    key: "T"
    value {
      type: DT_FLOAT
    }
  }
  attr {
    key: "_class"
    value {
      list {
        s: "loc:@resnet_v1_50/conv1/weights"
      }
    }
  }
}
node {
  name: "resnet_v1_50/conv1/weights/Initializer/truncated_normal"
  op: "Add"
  input: "resnet_v1_50/conv1/weights/Initializer/truncated_normal/mul"
  input: "resnet_v1_50/conv1/weights/Initializer/truncated_normal/mean"
  attr {
    key: "T"
    value {
      type: DT_FLOAT
    }
  }
  attr {
    key: "_class"
    value {
      list {
        s: "loc:@resnet_v1_50/conv1/weights"
      }
    }
  }
}
node {
  name: "resnet_v1_50/conv1/weights"
  op: "VariableV2"
  attr {
    key: "_class"
    value {
      list {
        s: "loc:@resnet_v1_50/conv1/weights"
      }
    }
  }
  attr {
    key: "container"
    value {
      s: ""
    }
  }
  attr {
    key: "dtype"
    value {
      type: DT_FLOAT
    }
  }
  attr {
    key: "shape"
    value {
      shape {
        dim {
          size: 7
        }
        dim {
          size: 7
        }
        dim {
          size: 3
        }
        dim {
          size: 64
        }
      }
    }
  }
  attr {
    key: "shared_name"
    value {
      s: ""
    }
  }
}
node {
  name: "resnet_v1_50/conv1/weights/Assign"
  op: "Assign"
  input: "resnet_v1_50/conv1/weights"
  input: "resnet_v1_50/conv1/weights/Initializer/truncated_normal"
  attr {
    key: "T"
    value {
      type: DT_FLOAT
    }
  }
  attr {
    key: "_class"
    value {
      list {
        s: "loc:@resnet_v1_50/conv1/weights"
      }
    }
  }
  attr {
    key: "use_locking"
    value {
      b: true
    }
  }
  attr {
    key: "validate_shape"
    value {
      b: true
    }
  }
}
node {
  name: "resnet_v1_50/conv1/weights/read"
  op: "Identity"
  input: "resnet_v1_50/conv1/weights"
  attr {
    key: "T"
    value {
      type: DT_FLOAT
    }
  }
  attr {
    key: "_class"
    value {
      list {
        s: "loc:@resnet_v1_50/conv1/weights"
      }
    }
  }
}
node {
  name: "resnet_v1_50/conv1/kernel/Regularizer/l2_regularizer/scale"
  op: "Const"
  attr {
    key: "dtype"
    value {
      type: DT_FLOAT
    }
  }
  attr {
    key: "value"
    value {
      tensor {
        dtype: DT_FLOAT
        tensor_shape {
        }
        float_val: 9.999999747378752e-05
      }
    }
  }
}
node {
  name: "resnet_v1_50/conv1/kernel/Regularizer/l2_regularizer/L2Loss"
  op: "L2Loss"
  input: "resnet_v1_50/conv1/weights/read"
  attr {
    key: "T"
    value {
      type: DT_FLOAT
    }
  }
}
node {
  name: "resnet_v1_50/conv1/kernel/Regularizer/l2_regularizer"
  op: "Mul"
  input: "resnet_v1_50/conv1/kernel/Regularizer/l2_regularizer/scale"
  input: "resnet_v1_50/conv1/kernel/Regularizer/l2_regularizer/L2Loss"
  attr {
    key: "T"
    value {
      type: DT_FLOAT
    }
  }
}
node {
  name: "resnet_v1_50/conv1/dilation_rate"
  op: "Const"
  attr {
    key: "dtype"
    value {
      type: DT_INT32
    }
  }
  attr {
    key: "value"
    value {
      tensor {
        dtype: DT_INT32
        tensor_shape {
          dim {
            size: 2
          }
        }
        tensor_content: "\001\000\000\000\001\000\000\000"
      }
    }
  }
}
node {
  name: "resnet_v1_50/conv1/Conv2D"
  op: "Conv2D"
  input: "resnet_v1_50/Pad"
  input: "resnet_v1_50/conv1/weights/read"
  attr {
    key: "T"
    value {
      type: DT_FLOAT
    }
  }
  attr {
    key: "data_format"
    value {
      s: "NHWC"
    }
  }
  attr {
    key: "dilations"
    value {
      list {
        i: 1
        i: 1
        i: 1
        i: 1
      }
    }
  }
  attr {
    key: "explicit_paddings"
    value {
      list {
      }
    }
  }
  attr {
    key: "padding"
    value {
      s: "VALID"
    }
  }
  attr {
    key: "strides"
    value {
      list {
        i: 1
        i: 2
        i: 2
        i: 1
      }
    }
  }
  attr {
    key: "use_cudnn_on_gpu"
    value {
      b: true
    }
  }
}
node {
  name: "resnet_v1_50/conv1/BatchNorm/gamma/Initializer/ones"
  op: "Const"
  attr {
    key: "_class"
    value {
      list {
        s: "loc:@resnet_v1_50/conv1/BatchNorm/gamma"
      }
    }
  }
  attr {
    key: "dtype"
    value {
      type: DT_FLOAT
    }
  }
  attr {
    key: "value"
    value {
      tensor {
        dtype: DT_FLOAT
        tensor_shape {
          dim {
            size: 64
          }
        }
        float_val: 1.0
      }
    }
  }
}
node {
  name: "resnet_v1_50/conv1/BatchNorm/gamma"
  op: "VariableV2"
  attr {
    key: "_class"
    value {
      list {
        s: "loc:@resnet_v1_50/conv1/BatchNorm/gamma"
      }
    }
  }
  attr {
    key: "container"
    value {
      s: ""
    }
  }
  attr {
    key: "dtype"
    value {
      type: DT_FLOAT
    }
  }
  attr {
    key: "shape"
    value {
      shape {
        dim {
          size: 64
        }
      }
    }
  }
  attr {
    key: "shared_name"
    value {
      s: ""
    }
  }
}
node {
  name: "resnet_v1_50/conv1/BatchNorm/gamma/Assign"
  op: "Assign"
  input: "resnet_v1_50/conv1/BatchNorm/gamma"
  input: "resnet_v1_50/conv1/BatchNorm/gamma/Initializer/ones"
  attr {
    key: "T"
    value {
      type: DT_FLOAT
    }
  }
  attr {
    key: "_class"
    value {
      list {
        s: "loc:@resnet_v1_50/conv1/BatchNorm/gamma"
      }
    }
  }
  attr {
    key: "use_locking"
    value {
      b: true
    }
  }
  attr {
    key: "validate_shape"
    value {
      b: true
    }
  }
}
node {
  name: "resnet_v1_50/conv1/BatchNorm/gamma/read"
  op: "Identity"
  input: "resnet_v1_50/conv1/BatchNorm/gamma"
  attr {
    key: "T"
    value {
      type: DT_FLOAT
    }
  }
  attr {
    key: "_class"
    value {
      list {
        s: "loc:@resnet_v1_50/conv1/BatchNorm/gamma"
      }
    }
  }
}
node {
  name: "resnet_v1_50/conv1/BatchNorm/beta/Initializer/zeros"
  op: "Const"
  attr {
    key: "_class"
    value {
      list {
        s: "loc:@resnet_v1_50/conv1/BatchNorm/beta"
      }
    }
  }
  attr {
    key: "dtype"
    value {
      type: DT_FLOAT
    }
  }
  attr {
    key: "value"
    value {
      tensor {
        dtype: DT_FLOAT
        tensor_shape {
          dim {
            size: 64
          }
        }
        float_val: 0.0
      }
    }
  }
}
node {
  name: "resnet_v1_50/conv1/BatchNorm/beta"
  op: "VariableV2"
  attr {
    key: "_class"
    value {
      list {
        s: "loc:@resnet_v1_50/conv1/BatchNorm/beta"
      }
    }
  }
  attr {
    key: "container"
    value {
      s: ""
    }
  }
  attr {
    key: "dtype"
    value {
      type: DT_FLOAT
    }
  }
  attr {
    key: "shape"
    value {
      shape {
        dim {
          size: 64
        }
      }
    }
  }
  attr {
    key: "shared_name"
    value {
      s: ""
    }
  }
}
node {
  name: "resnet_v1_50/conv1/BatchNorm/beta/Assign"
  op: "Assign"
  input: "resnet_v1_50/conv1/BatchNorm/beta"
  input: "resnet_v1_50/conv1/BatchNorm/beta/Initializer/zeros"
  attr {
    key: "T"
    value {
      type: DT_FLOAT
    }
  }
  attr {
    key: "_class"
    value {
      list {
        s: "loc:@resnet_v1_50/conv1/BatchNorm/beta"
      }
    }
  }
  attr {
    key: "use_locking"
    value {
      b: true
    }
  }
  attr {
    key: "validate_shape"
    value {
      b: true
    }
  }
}
node {
  name: "resnet_v1_50/conv1/BatchNorm/beta/read"
  op: "Identity"
  input: "resnet_v1_50/conv1/BatchNorm/beta"
  attr {
    key: "T"
    value {
      type: DT_FLOAT
    }
  }
  attr {
    key: "_class"
    value {
      list {
        s: "loc:@resnet_v1_50/conv1/BatchNorm/beta"
      }
    }
  }
}
node {
  name: "resnet_v1_50/conv1/BatchNorm/moving_mean/Initializer/zeros"
  op: "Const"
  attr {
    key: "_class"
    value {
      list {
        s: "loc:@resnet_v1_50/conv1/BatchNorm/moving_mean"
      }
    }
  }
  attr {
    key: "dtype"
    value {
      type: DT_FLOAT
    }
  }
  attr {
    key: "value"
    value {
      tensor {
        dtype: DT_FLOAT
        tensor_shape {
          dim {
            size: 64
          }
        }
        float_val: 0.0
      }
    }
  }
}
node {
  name: "resnet_v1_50/conv1/BatchNorm/moving_mean"
  op: "VariableV2"
  attr {
    key: "_class"
    value {
      list {
        s: "loc:@resnet_v1_50/conv1/BatchNorm/moving_mean"
      }
    }
  }
  attr {
    key: "container"
    value {
      s: ""
    }
  }
  attr {
    key: "dtype"
    value {
      type: DT_FLOAT
    }
  }
  attr {
    key: "shape"
    value {
      shape {
        dim {
          size: 64
        }
      }
    }
  }
  attr {
    key: "shared_name"
    value {
      s: ""
    }
  }
}
node {
  name: "resnet_v1_50/conv1/BatchNorm/moving_mean/Assign"
  op: "Assign"
  input: "resnet_v1_50/conv1/BatchNorm/moving_mean"
  input: "resnet_v1_50/conv1/BatchNorm/moving_mean/Initializer/zeros"
  attr {
    key: "T"
    value {
      type: DT_FLOAT
    }
  }
  attr {
    key: "_class"
    value {
      list {
        s: "loc:@resnet_v1_50/conv1/BatchNorm/moving_mean"
      }
    }
  }
  attr {
    key: "use_locking"
    value {
      b: true
    }
  }
  attr {
    key: "validate_shape"
    value {
      b: true
    }
  }
}
node {
  name: "resnet_v1_50/conv1/BatchNorm/moving_mean/read"
  op: "Identity"
  input: "resnet_v1_50/conv1/BatchNorm/moving_mean"
  attr {
    key: "T"
    value {
      type: DT_FLOAT
    }
  }
  attr {
    key: "_class"
    value {
      list {
        s: "loc:@resnet_v1_50/conv1/BatchNorm/moving_mean"
      }
    }
  }
}
node {
  name: "resnet_v1_50/conv1/BatchNorm/moving_variance/Initializer/ones"
  op: "Const"
  attr {
    key: "_class"
    value {
      list {
        s: "loc:@resnet_v1_50/conv1/BatchNorm/moving_variance"
      }
    }
  }
  attr {
    key: "dtype"
    value {
      type: DT_FLOAT
    }
  }
  attr {
    key: "value"
    value {
      tensor {
        dtype: DT_FLOAT
        tensor_shape {
          dim {
            size: 64
          }
        }
        float_val: 1.0
      }
    }
  }
}
node {
  name: "resnet_v1_50/conv1/BatchNorm/moving_variance"
  op: "VariableV2"
  attr {
    key: "_class"
    value {
      list {
        s: "loc:@resnet_v1_50/conv1/BatchNorm/moving_variance"
      }
    }
  }
  attr {
    key: "container"
    value {
      s: ""
    }
  }
  attr {
    key: "dtype"
    value {
      type: DT_FLOAT
    }
  }
  attr {
    key: "shape"
    value {
      shape {
        dim {
          size: 64
        }
      }
    }
  }
  attr {
    key: "shared_name"
    value {
      s: ""
    }
  }
}
node {
  name: "resnet_v1_50/conv1/BatchNorm/moving_variance/Assign"
  op: "Assign"
  input: "resnet_v1_50/conv1/BatchNorm/moving_variance"
  input: "resnet_v1_50/conv1/BatchNorm/moving_variance/Initializer/ones"
  attr {
    key: "T"
    value {
      type: DT_FLOAT
    }
  }
  attr {
    key: "_class"
    value {
      list {
        s: "loc:@resnet_v1_50/conv1/BatchNorm/moving_variance"
      }
    }
  }
  attr {
    key: "use_locking"
    value {
      b: true
    }
  }
  attr {
    key: "validate_shape"
    value {
      b: true
    }
  }
}
node {
  name: "resnet_v1_50/conv1/BatchNorm/moving_variance/read"
  op: "Identity"
  input: "resnet_v1_50/conv1/BatchNorm/moving_variance"
  attr {
    key: "T"
    value {
      type: DT_FLOAT
    }
  }
  attr {
    key: "_class"
    value {
      list {
        s: "loc:@resnet_v1_50/conv1/BatchNorm/moving_variance"
      }
    }
  }
}
node {
  name: "resnet_v1_50/conv1/BatchNorm/FusedBatchNormV3"
  op: "FusedBatchNormV3"
  input: "resnet_v1_50/conv1/Conv2D"
  input: "resnet_v1_50/conv1/BatchNorm/gamma/read"
  input: "resnet_v1_50/conv1/BatchNorm/beta/read"
  input: "resnet_v1_50/conv1/BatchNorm/moving_mean/read"
  input: "resnet_v1_50/conv1/BatchNorm/moving_variance/read"
  attr {
    key: "T"
    value {
      type: DT_FLOAT
    }
  }
  attr {
    key: "U"
    value {
      type: DT_FLOAT
    }
  }
  attr {
    key: "data_format"
    value {
      s: "NHWC"
    }
  }
  attr {
    key: "epsilon"
    value {
      f: 1.0009999641624745e-05
    }
  }
  attr {
    key: "is_training"
    value {
      b: false
    }
  }
}
node {
  name: "resnet_v1_50/conv1/BatchNorm/Const"
  op: "Const"
  attr {
    key: "dtype"
    value {
      type: DT_FLOAT
    }
  }
  attr {
    key: "value"
    value {
      tensor {
        dtype: DT_FLOAT
        tensor_shape {
        }
        float_val: 0.996999979019165
      }
    }
  }
}
node {
  name: "resnet_v1_50/conv1/Relu"
  op: "Relu"
  input: "resnet_v1_50/conv1/BatchNorm/FusedBatchNormV3"
  attr {
    key: "T"
    value {
      type: DT_FLOAT
    }
  }
}
node {
  name: "resnet_v1_50/pool1/MaxPool"
  op: "MaxPool"
  input: "resnet_v1_50/conv1/Relu"
  attr {
    key: "T"
    value {
      type: DT_FLOAT
    }
  }
  attr {
    key: "data_format"
    value {
      s: "NHWC"
    }
  }
  attr {
    key: "ksize"
    value {
      list {
        i: 1
        i: 3
        i: 3
        i: 1
      }
    }
  }
  attr {
    key: "padding"
    value {
      s: "SAME"
    }
  }
  attr {
    key: "strides"
    value {
      list {
        i: 1
        i: 2
        i: 2
        i: 1
      }
    }
  }
}
node {
  name: "resnet_v1_50/block1/unit_1/bottleneck_v1/shortcut/weights/Initializer/truncated_normal/shape"
  op: "Const"
  attr {
    key: "_class"
    value {
      list {
        s: "loc:@resnet_v1_50/block1/unit_1/bottleneck_v1/shortcut/weights"
      }
    }
  }
  attr {
    key: "dtype"
    value {
      type: DT_INT32
    }
  }
  attr {
    key: "value"
    value {
      tensor {
        dtype: DT_INT32
        tensor_shape {
          dim {
            size: 4
          }
        }
        tensor_content: "\001\000\000\000\001\000\000\000@\000\000\000\000\001\000\000"
      }
    }
  }
}
node {
  name: "resnet_v1_50/block1/unit_1/bottleneck_v1/shortcut/weights/Initializer/truncated_normal/mean"
  op: "Const"
  attr {
    key: "_class"
    value {
      list {
        s: "loc:@resnet_v1_50/block1/unit_1/bottleneck_v1/shortcut/weights"
      }
    }
  }
  attr {
    key: "dtype"
    value {
      type: DT_FLOAT
    }
  }
  attr {
    key: "value"
    value {
      tensor {
        dtype: DT_FLOAT
        tensor_shape {
        }
        float_val: 0.0
      }
    }
  }
}
node {
  name: "resnet_v1_50/block1/unit_1/bottleneck_v1/shortcut/weights/Initializer/truncated_normal/stddev"
  op: "Const"
  attr {
    key: "_class"
    value {
      list {
        s: "loc:@resnet_v1_50/block1/unit_1/bottleneck_v1/shortcut/weights"
      }
    }
  }
  attr {
    key: "dtype"
    value {
      type: DT_FLOAT
    }
  }
  attr {
    key: "value"
    value {
      tensor {
        dtype: DT_FLOAT
        tensor_shape {
        }
        float_val: 0.20155644416809082
      }
    }
  }
}
node {
  name: "resnet_v1_50/block1/unit_1/bottleneck_v1/shortcut/weights/Initializer/truncated_normal/TruncatedNormal"
  op: "TruncatedNormal"
  input: "resnet_v1_50/block1/unit_1/bottleneck_v1/shortcut/weights/Initializer/truncated_normal/shape"
  attr {
    key: "T"
    value {
      type: DT_INT32
    }
  }
  attr {
    key: "_class"
    value {
      list {
        s: "loc:@resnet_v1_50/block1/unit_1/bottleneck_v1/shortcut/weights"
      }
    }
  }
  attr {
    key: "dtype"
    value {
      type: DT_FLOAT
    }
  }
  attr {
    key: "seed"
    value {
      i: 0
    }
  }
  attr {
    key: "seed2"
    value {
      i: 0
    }
  }
}
node {
  name: "resnet_v1_50/block1/unit_1/bottleneck_v1/shortcut/weights/Initializer/truncated_normal/mul"
  op: "Mul"
  input: "resnet_v1_50/block1/unit_1/bottleneck_v1/shortcut/weights/Initializer/truncated_normal/TruncatedNormal"
  input: "resnet_v1_50/block1/unit_1/bottleneck_v1/shortcut/weights/Initializer/truncated_normal/stddev"
  attr {
    key: "T"
    value {
      type: DT_FLOAT
    }
  }
  attr {
    key: "_class"
    value {
      list {
        s: "loc:@resnet_v1_50/block1/unit_1/bottleneck_v1/shortcut/weights"
      }
    }
  }
}
node {
  name: "resnet_v1_50/block1/unit_1/bottleneck_v1/shortcut/weights/Initializer/truncated_normal"
  op: "Add"
  input: "resnet_v1_50/block1/unit_1/bottleneck_v1/shortcut/weights/Initializer/truncated_normal/mul"
  input: "resnet_v1_50/block1/unit_1/bottleneck_v1/shortcut/weights/Initializer/truncated_normal/mean"
  attr {
    key: "T"
    value {
      type: DT_FLOAT
    }
  }
  attr {
    key: "_class"
    value {
      list {
        s: "loc:@resnet_v1_50/block1/unit_1/bottleneck_v1/shortcut/weights"
      }
    }
  }
}
node {
  name: "resnet_v1_50/block1/unit_1/bottleneck_v1/shortcut/weights"
  op: "VariableV2"
  attr {
    key: "_class"
    value {
      list {
        s: "loc:@resnet_v1_50/block1/unit_1/bottleneck_v1/shortcut/weights"
      }
    }
  }
  attr {
    key: "container"
    value {
      s: ""
    }
  }
  attr {
    key: "dtype"
    value {
      type: DT_FLOAT
    }
  }
  attr {
    key: "shape"
    value {
      shape {
        dim {
          size: 1
        }
        dim {
          size: 1
        }
        dim {
          size: 64
        }
        dim {
          size: 256
        }
      }
    }
  }
  attr {
    key: "shared_name"
    value {
      s: ""
    }
  }
}
node {
  name: "resnet_v1_50/block1/unit_1/bottleneck_v1/shortcut/weights/Assign"
  op: "Assign"
  input: "resnet_v1_50/block1/unit_1/bottleneck_v1/shortcut/weights"
  input: "resnet_v1_50/block1/unit_1/bottleneck_v1/shortcut/weights/Initializer/truncated_normal"
  attr {
    key: "T"
    value {
      type: DT_FLOAT
    }
  }
  attr {
    key: "_class"
    value {
      list {
        s: "loc:@resnet_v1_50/block1/unit_1/bottleneck_v1/shortcut/weights"
      }
    }
  }
  attr {
    key: "use_locking"
    value {
      b: true
    }
  }
  attr {
    key: "validate_shape"
    value {
      b: true
    }
  }
}
node {
  name: "resnet_v1_50/block1/unit_1/bottleneck_v1/shortcut/weights/read"
  op: "Identity"
  input: "resnet_v1_50/block1/unit_1/bottleneck_v1/shortcut/weights"
  attr {
    key: "T"
    value {
      type: DT_FLOAT
    }
  }
  attr {
    key: "_class"
    value {
      list {
        s: "loc:@resnet_v1_50/block1/unit_1/bottleneck_v1/shortcut/weights"
      }
    }
  }
}
node {
  name: "resnet_v1_50/block1/unit_1/bottleneck_v1/shortcut/kernel/Regularizer/l2_regularizer/scale"
  op: "Const"
  attr {
    key: "dtype"
    value {
      type: DT_FLOAT
    }
  }
  attr {
    key: "value"
    value {
      tensor {
        dtype: DT_FLOAT
        tensor_shape {
        }
        float_val: 9.999999747378752e-05
      }
    }
  }
}
node {
  name: "resnet_v1_50/block1/unit_1/bottleneck_v1/shortcut/kernel/Regularizer/l2_regularizer/L2Loss"
  op: "L2Loss"
  input: "resnet_v1_50/block1/unit_1/bottleneck_v1/shortcut/weights/read"
  attr {
    key: "T"
    value {
      type: DT_FLOAT
    }
  }
}
node {
  name: "resnet_v1_50/block1/unit_1/bottleneck_v1/shortcut/kernel/Regularizer/l2_regularizer"
  op: "Mul"
  input: "resnet_v1_50/block1/unit_1/bottleneck_v1/shortcut/kernel/Regularizer/l2_regularizer/scale"
  input: "resnet_v1_50/block1/unit_1/bottleneck_v1/shortcut/kernel/Regularizer/l2_regularizer/L2Loss"
  attr {
    key: "T"
    value {
      type: DT_FLOAT
    }
  }
}
node {
  name: "resnet_v1_50/block1/unit_1/bottleneck_v1/shortcut/dilation_rate"
  op: "Const"
  attr {
    key: "dtype"
    value {
      type: DT_INT32
    }
  }
  attr {
    key: "value"
    value {
      tensor {
        dtype: DT_INT32
        tensor_shape {
          dim {
            size: 2
          }
        }
        tensor_content: "\001\000\000\000\001\000\000\000"
      }
    }
  }
}
node {
  name: "resnet_v1_50/block1/unit_1/bottleneck_v1/shortcut/Conv2D"
  op: "Conv2D"
  input: "resnet_v1_50/pool1/MaxPool"
  input: "resnet_v1_50/block1/unit_1/bottleneck_v1/shortcut/weights/read"
  attr {
    key: "T"
    value {
      type: DT_FLOAT
    }
  }
  attr {
    key: "data_format"
    value {
      s: "NHWC"
    }
  }
  attr {
    key: "dilations"
    value {
      list {
        i: 1
        i: 1
        i: 1
        i: 1
      }
    }
  }
  attr {
    key: "explicit_paddings"
    value {
      list {
      }
    }
  }
  attr {
    key: "padding"
    value {
      s: "SAME"
    }
  }
  attr {
    key: "strides"
    value {
      list {
        i: 1
        i: 1
        i: 1
        i: 1
      }
    }
  }
  attr {
    key: "use_cudnn_on_gpu"
    value {
      b: true
    }
  }
}
node {
  name: "resnet_v1_50/block1/unit_1/bottleneck_v1/shortcut/BatchNorm/gamma/Initializer/ones"
  op: "Const"
  attr {
    key: "_class"
    value {
      list {
        s: "loc:@resnet_v1_50/block1/unit_1/bottleneck_v1/shortcut/BatchNorm/gamma"
      }
    }
  }
  attr {
    key: "dtype"
    value {
      type: DT_FLOAT
    }
  }
  attr {
    key: "value"
    value {
      tensor {
        dtype: DT_FLOAT
        tensor_shape {
          dim {
            size: 256
          }
        }
        float_val: 1.0
      }
    }
  }
}
node {
  name: "resnet_v1_50/block1/unit_1/bottleneck_v1/shortcut/BatchNorm/gamma"
  op: "VariableV2"
  attr {
    key: "_class"
    value {
      list {
        s: "loc:@resnet_v1_50/block1/unit_1/bottleneck_v1/shortcut/BatchNorm/gamma"
      }
    }
  }
  attr {
    key: "container"
    value {
      s: ""
    }
  }
  attr {
    key: "dtype"
    value {
      type: DT_FLOAT
    }
  }
  attr {
    key: "shape"
    value {
      shape {
        dim {
          size: 256
        }
      }
    }
  }
  attr {
    key: "shared_name"
    value {
      s: ""
    }
  }
}
node {
  name: "resnet_v1_50/block1/unit_1/bottleneck_v1/shortcut/BatchNorm/gamma/Assign"
  op: "Assign"
  input: "resnet_v1_50/block1/unit_1/bottleneck_v1/shortcut/BatchNorm/gamma"
  input: "resnet_v1_50/block1/unit_1/bottleneck_v1/shortcut/BatchNorm/gamma/Initializer/ones"
  attr {
    key: "T"
    value {
      type: DT_FLOAT
    }
  }
  attr {
    key: "_class"
    value {
      list {
        s: "loc:@resnet_v1_50/block1/unit_1/bottleneck_v1/shortcut/BatchNorm/gamma"
      }
    }
  }
  attr {
    key: "use_locking"
    value {
      b: true
    }
  }
  attr {
    key: "validate_shape"
    value {
      b: true
    }
  }
}
node {
  name: "resnet_v1_50/block1/unit_1/bottleneck_v1/shortcut/BatchNorm/gamma/read"
  op: "Identity"
  input: "resnet_v1_50/block1/unit_1/bottleneck_v1/shortcut/BatchNorm/gamma"
  attr {
    key: "T"
    value {
      type: DT_FLOAT
    }
  }
  attr {
    key: "_class"
    value {
      list {
        s: "loc:@resnet_v1_50/block1/unit_1/bottleneck_v1/shortcut/BatchNorm/gamma"
      }
    }
  }
}
node {
  name: "resnet_v1_50/block1/unit_1/bottleneck_v1/shortcut/BatchNorm/beta/Initializer/zeros"
  op: "Const"
  attr {
    key: "_class"
    value {
      list {
        s: "loc:@resnet_v1_50/block1/unit_1/bottleneck_v1/shortcut/BatchNorm/beta"
      }
    }
  }
  attr {
    key: "dtype"
    value {
      type: DT_FLOAT
    }
  }
  attr {
    key: "value"
    value {
      tensor {
        dtype: DT_FLOAT
        tensor_shape {
          dim {
            size: 256
          }
        }
        float_val: 0.0
      }
    }
  }
}
node {
  name: "resnet_v1_50/block1/unit_1/bottleneck_v1/shortcut/BatchNorm/beta"
  op: "VariableV2"
  attr {
    key: "_class"
    value {
      list {
        s: "loc:@resnet_v1_50/block1/unit_1/bottleneck_v1/shortcut/BatchNorm/beta"
      }
    }
  }
  attr {
    key: "container"
    value {
      s: ""
    }
  }
  attr {
    key: "dtype"
    value {
      type: DT_FLOAT
    }
  }
  attr {
    key: "shape"
    value {
      shape {
        dim {
          size: 256
        }
      }
    }
  }
  attr {
    key: "shared_name"
    value {
      s: ""
    }
  }
}
node {
  name: "resnet_v1_50/block1/unit_1/bottleneck_v1/shortcut/BatchNorm/beta/Assign"
  op: "Assign"
  input: "resnet_v1_50/block1/unit_1/bottleneck_v1/shortcut/BatchNorm/beta"
  input: "resnet_v1_50/block1/unit_1/bottleneck_v1/shortcut/BatchNorm/beta/Initializer/zeros"
  attr {
    key: "T"
    value {
      type: DT_FLOAT
    }
  }
  attr {
    key: "_class"
    value {
      list {
        s: "loc:@resnet_v1_50/block1/unit_1/bottleneck_v1/shortcut/BatchNorm/beta"
      }
    }
  }
  attr {
    key: "use_locking"
    value {
      b: true
    }
  }
  attr {
    key: "validate_shape"
    value {
      b: true
    }
  }
}
node {
  name: "resnet_v1_50/block1/unit_1/bottleneck_v1/shortcut/BatchNorm/beta/read"
  op: "Identity"
  input: "resnet_v1_50/block1/unit_1/bottleneck_v1/shortcut/BatchNorm/beta"
  attr {
    key: "T"
    value {
      type: DT_FLOAT
    }
  }
  attr {
    key: "_class"
    value {
      list {
        s: "loc:@resnet_v1_50/block1/unit_1/bottleneck_v1/shortcut/BatchNorm/beta"
      }
    }
  }
}
node {
  name: "resnet_v1_50/block1/unit_1/bottleneck_v1/shortcut/BatchNorm/moving_mean/Initializer/zeros"
  op: "Const"
  attr {
    key: "_class"
    value {
      list {
        s: "loc:@resnet_v1_50/block1/unit_1/bottleneck_v1/shortcut/BatchNorm/moving_mean"
      }
    }
  }
  attr {
    key: "dtype"
    value {
      type: DT_FLOAT
    }
  }
  attr {
    key: "value"
    value {
      tensor {
        dtype: DT_FLOAT
        tensor_shape {
          dim {
            size: 256
          }
        }
        float_val: 0.0
      }
    }
  }
}
node {
  name: "resnet_v1_50/block1/unit_1/bottleneck_v1/shortcut/BatchNorm/moving_mean"
  op: "VariableV2"
  attr {
    key: "_class"
    value {
      list {
        s: "loc:@resnet_v1_50/block1/unit_1/bottleneck_v1/shortcut/BatchNorm/moving_mean"
      }
    }
  }
  attr {
    key: "container"
    value {
      s: ""
    }
  }
  attr {
    key: "dtype"
    value {
      type: DT_FLOAT
    }
  }
  attr {
    key: "shape"
    value {
      shape {
        dim {
          size: 256
        }
      }
    }
  }
  attr {
    key: "shared_name"
    value {
      s: ""
    }
  }
}
node {
  name: "resnet_v1_50/block1/unit_1/bottleneck_v1/shortcut/BatchNorm/moving_mean/Assign"
  op: "Assign"
  input: "resnet_v1_50/block1/unit_1/bottleneck_v1/shortcut/BatchNorm/moving_mean"
  input: "resnet_v1_50/block1/unit_1/bottleneck_v1/shortcut/BatchNorm/moving_mean/Initializer/zeros"
  attr {
    key: "T"
    value {
      type: DT_FLOAT
    }
  }
  attr {
    key: "_class"
    value {
      list {
        s: "loc:@resnet_v1_50/block1/unit_1/bottleneck_v1/shortcut/BatchNorm/moving_mean"
      }
    }
  }
  attr {
    key: "use_locking"
    value {
      b: true
    }
  }
  attr {
    key: "validate_shape"
    value {
      b: true
    }
  }
}
node {
  name: "resnet_v1_50/block1/unit_1/bottleneck_v1/shortcut/BatchNorm/moving_mean/read"
  op: "Identity"
  input: "resnet_v1_50/block1/unit_1/bottleneck_v1/shortcut/BatchNorm/moving_mean"
  attr {
    key: "T"
    value {
      type: DT_FLOAT
    }
  }
  attr {
    key: "_class"
    value {
      list {
        s: "loc:@resnet_v1_50/block1/unit_1/bottleneck_v1/shortcut/BatchNorm/moving_mean"
      }
    }
  }
}
node {
  name: "resnet_v1_50/block1/unit_1/bottleneck_v1/shortcut/BatchNorm/moving_variance/Initializer/ones"
  op: "Const"
  attr {
    key: "_class"
    value {
      list {
        s: "loc:@resnet_v1_50/block1/unit_1/bottleneck_v1/shortcut/BatchNorm/moving_variance"
      }
    }
  }
  attr {
    key: "dtype"
    value {
      type: DT_FLOAT
    }
  }
  attr {
    key: "value"
    value {
      tensor {
        dtype: DT_FLOAT
        tensor_shape {
          dim {
            size: 256
          }
        }
        float_val: 1.0
      }
    }
  }
}
node {
  name: "resnet_v1_50/block1/unit_1/bottleneck_v1/shortcut/BatchNorm/moving_variance"
  op: "VariableV2"
  attr {
    key: "_class"
    value {
      list {
        s: "loc:@resnet_v1_50/block1/unit_1/bottleneck_v1/shortcut/BatchNorm/moving_variance"
      }
    }
  }
  attr {
    key: "container"
    value {
      s: ""
    }
  }
  attr {
    key: "dtype"
    value {
      type: DT_FLOAT
    }
  }
  attr {
    key: "shape"
    value {
      shape {
        dim {
          size: 256
        }
      }
    }
  }
  attr {
    key: "shared_name"
    value {
      s: ""
    }
  }
}
node {
  name: "resnet_v1_50/block1/unit_1/bottleneck_v1/shortcut/BatchNorm/moving_variance/Assign"
  op: "Assign"
  input: "resnet_v1_50/block1/unit_1/bottleneck_v1/shortcut/BatchNorm/moving_variance"
  input: "resnet_v1_50/block1/unit_1/bottleneck_v1/shortcut/BatchNorm/moving_variance/Initializer/ones"
  attr {
    key: "T"
    value {
      type: DT_FLOAT
    }
  }
  attr {
    key: "_class"
    value {
      list {
        s: "loc:@resnet_v1_50/block1/unit_1/bottleneck_v1/shortcut/BatchNorm/moving_variance"
      }
    }
  }
  attr {
    key: "use_locking"
    value {
      b: true
    }
  }
  attr {
    key: "validate_shape"
    value {
      b: true
    }
  }
}
node {
  name: "resnet_v1_50/block1/unit_1/bottleneck_v1/shortcut/BatchNorm/moving_variance/read"
  op: "Identity"
  input: "resnet_v1_50/block1/unit_1/bottleneck_v1/shortcut/BatchNorm/moving_variance"
  attr {
    key: "T"
    value {
      type: DT_FLOAT
    }
  }
  attr {
    key: "_class"
    value {
      list {
        s: "loc:@resnet_v1_50/block1/unit_1/bottleneck_v1/shortcut/BatchNorm/moving_variance"
      }
    }
  }
}
node {
  name: "resnet_v1_50/block1/unit_1/bottleneck_v1/shortcut/BatchNorm/FusedBatchNormV3"
  op: "FusedBatchNormV3"
  input: "resnet_v1_50/block1/unit_1/bottleneck_v1/shortcut/Conv2D"
  input: "resnet_v1_50/block1/unit_1/bottleneck_v1/shortcut/BatchNorm/gamma/read"
  input: "resnet_v1_50/block1/unit_1/bottleneck_v1/shortcut/BatchNorm/beta/read"
  input: "resnet_v1_50/block1/unit_1/bottleneck_v1/shortcut/BatchNorm/moving_mean/read"
  input: "resnet_v1_50/block1/unit_1/bottleneck_v1/shortcut/BatchNorm/moving_variance/read"
  attr {
    key: "T"
    value {
      type: DT_FLOAT
    }
  }
  attr {
    key: "U"
    value {
      type: DT_FLOAT
    }
  }
  attr {
    key: "data_format"
    value {
      s: "NHWC"
    }
  }
  attr {
    key: "epsilon"
    value {
      f: 1.0009999641624745e-05
    }
  }
  attr {
    key: "is_training"
    value {
      b: false
    }
  }
}
node {
  name: "resnet_v1_50/block1/unit_1/bottleneck_v1/shortcut/BatchNorm/Const"
  op: "Const"
  attr {
    key: "dtype"
    value {
      type: DT_FLOAT
    }
  }
  attr {
    key: "value"
    value {
      tensor {
        dtype: DT_FLOAT
        tensor_shape {
        }
        float_val: 0.996999979019165
      }
    }
  }
}
node {
  name: "resnet_v1_50/block1/unit_1/bottleneck_v1/conv1/weights/Initializer/truncated_normal/shape"
  op: "Const"
  attr {
    key: "_class"
    value {
      list {
        s: "loc:@resnet_v1_50/block1/unit_1/bottleneck_v1/conv1/weights"
      }
    }
  }
  attr {
    key: "dtype"
    value {
      type: DT_INT32
    }
  }
  attr {
    key: "value"
    value {
      tensor {
        dtype: DT_INT32
        tensor_shape {
          dim {
            size: 4
          }
        }
        tensor_content: "\001\000\000\000\001\000\000\000@\000\000\000@\000\000\000"
      }
    }
  }
}
node {
  name: "resnet_v1_50/block1/unit_1/bottleneck_v1/conv1/weights/Initializer/truncated_normal/mean"
  op: "Const"
  attr {
    key: "_class"
    value {
      list {
        s: "loc:@resnet_v1_50/block1/unit_1/bottleneck_v1/conv1/weights"
      }
    }
  }
  attr {
    key: "dtype"
    value {
      type: DT_FLOAT
    }
  }
  attr {
    key: "value"
    value {
      tensor {
        dtype: DT_FLOAT
        tensor_shape {
        }
        float_val: 0.0
      }
    }
  }
}
node {
  name: "resnet_v1_50/block1/unit_1/bottleneck_v1/conv1/weights/Initializer/truncated_normal/stddev"
  op: "Const"
  attr {
    key: "_class"
    value {
      list {
        s: "loc:@resnet_v1_50/block1/unit_1/bottleneck_v1/conv1/weights"
      }
    }
  }
  attr {
    key: "dtype"
    value {
      type: DT_FLOAT
    }
  }
  attr {
    key: "value"
    value {
      tensor {
        dtype: DT_FLOAT
        tensor_shape {
        }
        float_val: 0.20155644416809082
      }
    }
  }
}
node {
  name: "resnet_v1_50/block1/unit_1/bottleneck_v1/conv1/weights/Initializer/truncated_normal/TruncatedNormal"
  op: "TruncatedNormal"
  input: "resnet_v1_50/block1/unit_1/bottleneck_v1/conv1/weights/Initializer/truncated_normal/shape"
  attr {
    key: "T"
    value {
      type: DT_INT32
    }
  }
  attr {
    key: "_class"
    value {
      list {
        s: "loc:@resnet_v1_50/block1/unit_1/bottleneck_v1/conv1/weights"
      }
    }
  }
  attr {
    key: "dtype"
    value {
      type: DT_FLOAT
    }
  }
  attr {
    key: "seed"
    value {
      i: 0
    }
  }
  attr {
    key: "seed2"
    value {
      i: 0
    }
  }
}
node {
  name: "resnet_v1_50/block1/unit_1/bottleneck_v1/conv1/weights/Initializer/truncated_normal/mul"
  op: "Mul"
  input: "resnet_v1_50/block1/unit_1/bottleneck_v1/conv1/weights/Initializer/truncated_normal/TruncatedNormal"
  input: "resnet_v1_50/block1/unit_1/bottleneck_v1/conv1/weights/Initializer/truncated_normal/stddev"
  attr {
    key: "T"
    value {
      type: DT_FLOAT
    }
  }
  attr {
    key: "_class"
    value {
      list {
        s: "loc:@resnet_v1_50/block1/unit_1/bottleneck_v1/conv1/weights"
      }
    }
  }
}
node {
  name: "resnet_v1_50/block1/unit_1/bottleneck_v1/conv1/weights/Initializer/truncated_normal"
  op: "Add"
  input: "resnet_v1_50/block1/unit_1/bottleneck_v1/conv1/weights/Initializer/truncated_normal/mul"
  input: "resnet_v1_50/block1/unit_1/bottleneck_v1/conv1/weights/Initializer/truncated_normal/mean"
  attr {
    key: "T"
    value {
      type: DT_FLOAT
    }
  }
  attr {
    key: "_class"
    value {
      list {
        s: "loc:@resnet_v1_50/block1/unit_1/bottleneck_v1/conv1/weights"
      }
    }
  }
}
node {
  name: "resnet_v1_50/block1/unit_1/bottleneck_v1/conv1/weights"
  op: "VariableV2"
  attr {
    key: "_class"
    value {
      list {
        s: "loc:@resnet_v1_50/block1/unit_1/bottleneck_v1/conv1/weights"
      }
    }
  }
  attr {
    key: "container"
    value {
      s: ""
    }
  }
  attr {
    key: "dtype"
    value {
      type: DT_FLOAT
    }
  }
  attr {
    key: "shape"
    value {
      shape {
        dim {
          size: 1
        }
        dim {
          size: 1
        }
        dim {
          size: 64
        }
        dim {
          size: 64
        }
      }
    }
  }
  attr {
    key: "shared_name"
    value {
      s: ""
    }
  }
}
node {
  name: "resnet_v1_50/block1/unit_1/bottleneck_v1/conv1/weights/Assign"
  op: "Assign"
  input: "resnet_v1_50/block1/unit_1/bottleneck_v1/conv1/weights"
  input: "resnet_v1_50/block1/unit_1/bottleneck_v1/conv1/weights/Initializer/truncated_normal"
  attr {
    key: "T"
    value {
      type: DT_FLOAT
    }
  }
  attr {
    key: "_class"
    value {
      list {
        s: "loc:@resnet_v1_50/block1/unit_1/bottleneck_v1/conv1/weights"
      }
    }
  }
  attr {
    key: "use_locking"
    value {
      b: true
    }
  }
  attr {
    key: "validate_shape"
    value {
      b: true
    }
  }
}
node {
  name: "resnet_v1_50/block1/unit_1/bottleneck_v1/conv1/weights/read"
  op: "Identity"
  input: "resnet_v1_50/block1/unit_1/bottleneck_v1/conv1/weights"
  attr {
    key: "T"
    value {
      type: DT_FLOAT
    }
  }
  attr {
    key: "_class"
    value {
      list {
        s: "loc:@resnet_v1_50/block1/unit_1/bottleneck_v1/conv1/weights"
      }
    }
  }
}
node {
  name: "resnet_v1_50/block1/unit_1/bottleneck_v1/conv1/kernel/Regularizer/l2_regularizer/scale"
  op: "Const"
  attr {
    key: "dtype"
    value {
      type: DT_FLOAT
    }
  }
  attr {
    key: "value"
    value {
      tensor {
        dtype: DT_FLOAT
        tensor_shape {
        }
        float_val: 9.999999747378752e-05
      }
    }
  }
}
node {
  name: "resnet_v1_50/block1/unit_1/bottleneck_v1/conv1/kernel/Regularizer/l2_regularizer/L2Loss"
  op: "L2Loss"
  input: "resnet_v1_50/block1/unit_1/bottleneck_v1/conv1/weights/read"
  attr {
    key: "T"
    value {
      type: DT_FLOAT
    }
  }
}
node {
  name: "resnet_v1_50/block1/unit_1/bottleneck_v1/conv1/kernel/Regularizer/l2_regularizer"
  op: "Mul"
  input: "resnet_v1_50/block1/unit_1/bottleneck_v1/conv1/kernel/Regularizer/l2_regularizer/scale"
  input: "resnet_v1_50/block1/unit_1/bottleneck_v1/conv1/kernel/Regularizer/l2_regularizer/L2Loss"
  attr {
    key: "T"
    value {
      type: DT_FLOAT
    }
  }
}
node {
  name: "resnet_v1_50/block1/unit_1/bottleneck_v1/conv1/dilation_rate"
  op: "Const"
  attr {
    key: "dtype"
    value {
      type: DT_INT32
    }
  }
  attr {
    key: "value"
    value {
      tensor {
        dtype: DT_INT32
        tensor_shape {
          dim {
            size: 2
          }
        }
        tensor_content: "\001\000\000\000\001\000\000\000"
      }
    }
  }
}
node {
  name: "resnet_v1_50/block1/unit_1/bottleneck_v1/conv1/Conv2D"
  op: "Conv2D"
  input: "resnet_v1_50/pool1/MaxPool"
  input: "resnet_v1_50/block1/unit_1/bottleneck_v1/conv1/weights/read"
  attr {
    key: "T"
    value {
      type: DT_FLOAT
    }
  }
  attr {
    key: "data_format"
    value {
      s: "NHWC"
    }
  }
  attr {
    key: "dilations"
    value {
      list {
        i: 1
        i: 1
        i: 1
        i: 1
      }
    }
  }
  attr {
    key: "explicit_paddings"
    value {
      list {
      }
    }
  }
  attr {
    key: "padding"
    value {
      s: "SAME"
    }
  }
  attr {
    key: "strides"
    value {
      list {
        i: 1
        i: 1
        i: 1
        i: 1
      }
    }
  }
  attr {
    key: "use_cudnn_on_gpu"
    value {
      b: true
    }
  }
}
node {
  name: "resnet_v1_50/block1/unit_1/bottleneck_v1/conv1/BatchNorm/gamma/Initializer/ones"
  op: "Const"
  attr {
    key: "_class"
    value {
      list {
        s: "loc:@resnet_v1_50/block1/unit_1/bottleneck_v1/conv1/BatchNorm/gamma"
      }
    }
  }
  attr {
    key: "dtype"
    value {
      type: DT_FLOAT
    }
  }
  attr {
    key: "value"
    value {
      tensor {
        dtype: DT_FLOAT
        tensor_shape {
          dim {
            size: 64
          }
        }
        float_val: 1.0
      }
    }
  }
}
node {
  name: "resnet_v1_50/block1/unit_1/bottleneck_v1/conv1/BatchNorm/gamma"
  op: "VariableV2"
  attr {
    key: "_class"
    value {
      list {
        s: "loc:@resnet_v1_50/block1/unit_1/bottleneck_v1/conv1/BatchNorm/gamma"
      }
    }
  }
  attr {
    key: "container"
    value {
      s: ""
    }
  }
  attr {
    key: "dtype"
    value {
      type: DT_FLOAT
    }
  }
  attr {
    key: "shape"
    value {
      shape {
        dim {
          size: 64
        }
      }
    }
  }
  attr {
    key: "shared_name"
    value {
      s: ""
    }
  }
}
node {
  name: "resnet_v1_50/block1/unit_1/bottleneck_v1/conv1/BatchNorm/gamma/Assign"
  op: "Assign"
  input: "resnet_v1_50/block1/unit_1/bottleneck_v1/conv1/BatchNorm/gamma"
  input: "resnet_v1_50/block1/unit_1/bottleneck_v1/conv1/BatchNorm/gamma/Initializer/ones"
  attr {
    key: "T"
    value {
      type: DT_FLOAT
    }
  }
  attr {
    key: "_class"
    value {
      list {
        s: "loc:@resnet_v1_50/block1/unit_1/bottleneck_v1/conv1/BatchNorm/gamma"
      }
    }
  }
  attr {
    key: "use_locking"
    value {
      b: true
    }
  }
  attr {
    key: "validate_shape"
    value {
      b: true
    }
  }
}
node {
  name: "resnet_v1_50/block1/unit_1/bottleneck_v1/conv1/BatchNorm/gamma/read"
  op: "Identity"
  input: "resnet_v1_50/block1/unit_1/bottleneck_v1/conv1/BatchNorm/gamma"
  attr {
    key: "T"
    value {
      type: DT_FLOAT
    }
  }
  attr {
    key: "_class"
    value {
      list {
        s: "loc:@resnet_v1_50/block1/unit_1/bottleneck_v1/conv1/BatchNorm/gamma"
      }
    }
  }
}
node {
  name: "resnet_v1_50/block1/unit_1/bottleneck_v1/conv1/BatchNorm/beta/Initializer/zeros"
  op: "Const"
  attr {
    key: "_class"
    value {
      list {
        s: "loc:@resnet_v1_50/block1/unit_1/bottleneck_v1/conv1/BatchNorm/beta"
      }
    }
  }
  attr {
    key: "dtype"
    value {
      type: DT_FLOAT
    }
  }
  attr {
    key: "value"
    value {
      tensor {
        dtype: DT_FLOAT
        tensor_shape {
          dim {
            size: 64
          }
        }
        float_val: 0.0
      }
    }
  }
}
node {
  name: "resnet_v1_50/block1/unit_1/bottleneck_v1/conv1/BatchNorm/beta"
  op: "VariableV2"
  attr {
    key: "_class"
    value {
      list {
        s: "loc:@resnet_v1_50/block1/unit_1/bottleneck_v1/conv1/BatchNorm/beta"
      }
    }
  }
  attr {
    key: "container"
    value {
      s: ""
    }
  }
  attr {
    key: "dtype"
    value {
      type: DT_FLOAT
    }
  }
  attr {
    key: "shape"
    value {
      shape {
        dim {
          size: 64
        }
      }
    }
  }
  attr {
    key: "shared_name"
    value {
      s: ""
    }
  }
}
node {
  name: "resnet_v1_50/block1/unit_1/bottleneck_v1/conv1/BatchNorm/beta/Assign"
  op: "Assign"
  input: "resnet_v1_50/block1/unit_1/bottleneck_v1/conv1/BatchNorm/beta"
  input: "resnet_v1_50/block1/unit_1/bottleneck_v1/conv1/BatchNorm/beta/Initializer/zeros"
  attr {
    key: "T"
    value {
      type: DT_FLOAT
    }
  }
  attr {
    key: "_class"
    value {
      list {
        s: "loc:@resnet_v1_50/block1/unit_1/bottleneck_v1/conv1/BatchNorm/beta"
      }
    }
  }
  attr {
    key: "use_locking"
    value {
      b: true
    }
  }
  attr {
    key: "validate_shape"
    value {
      b: true
    }
  }
}
node {
  name: "resnet_v1_50/block1/unit_1/bottleneck_v1/conv1/BatchNorm/beta/read"
  op: "Identity"
  input: "resnet_v1_50/block1/unit_1/bottleneck_v1/conv1/BatchNorm/beta"
  attr {
    key: "T"
    value {
      type: DT_FLOAT
    }
  }
  attr {
    key: "_class"
    value {
      list {
        s: "loc:@resnet_v1_50/block1/unit_1/bottleneck_v1/conv1/BatchNorm/beta"
      }
    }
  }
}
node {
  name: "resnet_v1_50/block1/unit_1/bottleneck_v1/conv1/BatchNorm/moving_mean/Initializer/zeros"
  op: "Const"
  attr {
    key: "_class"
    value {
      list {
        s: "loc:@resnet_v1_50/block1/unit_1/bottleneck_v1/conv1/BatchNorm/moving_mean"
      }
    }
  }
  attr {
    key: "dtype"
    value {
      type: DT_FLOAT
    }
  }
  attr {
    key: "value"
    value {
      tensor {
        dtype: DT_FLOAT
        tensor_shape {
          dim {
            size: 64
          }
        }
        float_val: 0.0
      }
    }
  }
}
node {
  name: "resnet_v1_50/block1/unit_1/bottleneck_v1/conv1/BatchNorm/moving_mean"
  op: "VariableV2"
  attr {
    key: "_class"
    value {
      list {
        s: "loc:@resnet_v1_50/block1/unit_1/bottleneck_v1/conv1/BatchNorm/moving_mean"
      }
    }
  }
  attr {
    key: "container"
    value {
      s: ""
    }
  }
  attr {
    key: "dtype"
    value {
      type: DT_FLOAT
    }
  }
  attr {
    key: "shape"
    value {
      shape {
        dim {
          size: 64
        }
      }
    }
  }
  attr {
    key: "shared_name"
    value {
      s: ""
    }
  }
}
node {
  name: "resnet_v1_50/block1/unit_1/bottleneck_v1/conv1/BatchNorm/moving_mean/Assign"
  op: "Assign"
  input: "resnet_v1_50/block1/unit_1/bottleneck_v1/conv1/BatchNorm/moving_mean"
  input: "resnet_v1_50/block1/unit_1/bottleneck_v1/conv1/BatchNorm/moving_mean/Initializer/zeros"
  attr {
    key: "T"
    value {
      type: DT_FLOAT
    }
  }
  attr {
    key: "_class"
    value {
      list {
        s: "loc:@resnet_v1_50/block1/unit_1/bottleneck_v1/conv1/BatchNorm/moving_mean"
      }
    }
  }
  attr {
    key: "use_locking"
    value {
      b: true
    }
  }
  attr {
    key: "validate_shape"
    value {
      b: true
    }
  }
}
node {
  name: "resnet_v1_50/block1/unit_1/bottleneck_v1/conv1/BatchNorm/moving_mean/read"
  op: "Identity"
  input: "resnet_v1_50/block1/unit_1/bottleneck_v1/conv1/BatchNorm/moving_mean"
  attr {
    key: "T"
    value {
      type: DT_FLOAT
    }
  }
  attr {
    key: "_class"
    value {
      list {
        s: "loc:@resnet_v1_50/block1/unit_1/bottleneck_v1/conv1/BatchNorm/moving_mean"
      }
    }
  }
}
node {
  name: "resnet_v1_50/block1/unit_1/bottleneck_v1/conv1/BatchNorm/moving_variance/Initializer/ones"
  op: "Const"
  attr {
    key: "_class"
    value {
      list {
        s: "loc:@resnet_v1_50/block1/unit_1/bottleneck_v1/conv1/BatchNorm/moving_variance"
      }
    }
  }
  attr {
    key: "dtype"
    value {
      type: DT_FLOAT
    }
  }
  attr {
    key: "value"
    value {
      tensor {
        dtype: DT_FLOAT
        tensor_shape {
          dim {
            size: 64
          }
        }
        float_val: 1.0
      }
    }
  }
}
node {
  name: "resnet_v1_50/block1/unit_1/bottleneck_v1/conv1/BatchNorm/moving_variance"
  op: "VariableV2"
  attr {
    key: "_class"
    value {
      list {
        s: "loc:@resnet_v1_50/block1/unit_1/bottleneck_v1/conv1/BatchNorm/moving_variance"
      }
    }
  }
  attr {
    key: "container"
    value {
      s: ""
    }
  }
  attr {
    key: "dtype"
    value {
      type: DT_FLOAT
    }
  }
  attr {
    key: "shape"
    value {
      shape {
        dim {
          size: 64
        }
      }
    }
  }
  attr {
    key: "shared_name"
    value {
      s: ""
    }
  }
}
node {
  name: "resnet_v1_50/block1/unit_1/bottleneck_v1/conv1/BatchNorm/moving_variance/Assign"
  op: "Assign"
  input: "resnet_v1_50/block1/unit_1/bottleneck_v1/conv1/BatchNorm/moving_variance"
  input: "resnet_v1_50/block1/unit_1/bottleneck_v1/conv1/BatchNorm/moving_variance/Initializer/ones"
  attr {
    key: "T"
    value {
      type: DT_FLOAT
    }
  }
  attr {
    key: "_class"
    value {
      list {
        s: "loc:@resnet_v1_50/block1/unit_1/bottleneck_v1/conv1/BatchNorm/moving_variance"
      }
    }
  }
  attr {
    key: "use_locking"
    value {
      b: true
    }
  }
  attr {
    key: "validate_shape"
    value {
      b: true
    }
  }
}
node {
  name: "resnet_v1_50/block1/unit_1/bottleneck_v1/conv1/BatchNorm/moving_variance/read"
  op: "Identity"
  input: "resnet_v1_50/block1/unit_1/bottleneck_v1/conv1/BatchNorm/moving_variance"
  attr {
    key: "T"
    value {
      type: DT_FLOAT
    }
  }
  attr {
    key: "_class"
    value {
      list {
        s: "loc:@resnet_v1_50/block1/unit_1/bottleneck_v1/conv1/BatchNorm/moving_variance"
      }
    }
  }
}
node {
  name: "resnet_v1_50/block1/unit_1/bottleneck_v1/conv1/BatchNorm/FusedBatchNormV3"
  op: "FusedBatchNormV3"
  input: "resnet_v1_50/block1/unit_1/bottleneck_v1/conv1/Conv2D"
  input: "resnet_v1_50/block1/unit_1/bottleneck_v1/conv1/BatchNorm/gamma/read"
  input: "resnet_v1_50/block1/unit_1/bottleneck_v1/conv1/BatchNorm/beta/read"
  input: "resnet_v1_50/block1/unit_1/bottleneck_v1/conv1/BatchNorm/moving_mean/read"
  input: "resnet_v1_50/block1/unit_1/bottleneck_v1/conv1/BatchNorm/moving_variance/read"
  attr {
    key: "T"
    value {
      type: DT_FLOAT
    }
  }
  attr {
    key: "U"
    value {
      type: DT_FLOAT
    }
  }
  attr {
    key: "data_format"
    value {
      s: "NHWC"
    }
  }
  attr {
    key: "epsilon"
    value {
      f: 1.0009999641624745e-05
    }
  }
  attr {
    key: "is_training"
    value {
      b: false
    }
  }
}
node {
  name: "resnet_v1_50/block1/unit_1/bottleneck_v1/conv1/BatchNorm/Const"
  op: "Const"
  attr {
    key: "dtype"
    value {
      type: DT_FLOAT
    }
  }
  attr {
    key: "value"
    value {
      tensor {
        dtype: DT_FLOAT
        tensor_shape {
        }
        float_val: 0.996999979019165
      }
    }
  }
}
node {
  name: "resnet_v1_50/block1/unit_1/bottleneck_v1/conv1/Relu"
  op: "Relu"
  input: "resnet_v1_50/block1/unit_1/bottleneck_v1/conv1/BatchNorm/FusedBatchNormV3"
  attr {
    key: "T"
    value {
      type: DT_FLOAT
    }
  }
}
node {
  name: "resnet_v1_50/block1/unit_1/bottleneck_v1/conv2/weights/Initializer/truncated_normal/shape"
  op: "Const"
  attr {
    key: "_class"
    value {
      list {
        s: "loc:@resnet_v1_50/block1/unit_1/bottleneck_v1/conv2/weights"
      }
    }
  }
  attr {
    key: "dtype"
    value {
      type: DT_INT32
    }
  }
  attr {
    key: "value"
    value {
      tensor {
        dtype: DT_INT32
        tensor_shape {
          dim {
            size: 4
          }
        }
        tensor_content: "\003\000\000\000\003\000\000\000@\000\000\000@\000\000\000"
      }
    }
  }
}
node {
  name: "resnet_v1_50/block1/unit_1/bottleneck_v1/conv2/weights/Initializer/truncated_normal/mean"
  op: "Const"
  attr {
    key: "_class"
    value {
      list {
        s: "loc:@resnet_v1_50/block1/unit_1/bottleneck_v1/conv2/weights"
      }
    }
  }
  attr {
    key: "dtype"
    value {
      type: DT_FLOAT
    }
  }
  attr {
    key: "value"
    value {
      tensor {
        dtype: DT_FLOAT
        tensor_shape {
        }
        float_val: 0.0
      }
    }
  }
}
node {
  name: "resnet_v1_50/block1/unit_1/bottleneck_v1/conv2/weights/Initializer/truncated_normal/stddev"
  op: "Const"
  attr {
    key: "_class"
    value {
      list {
        s: "loc:@resnet_v1_50/block1/unit_1/bottleneck_v1/conv2/weights"
      }
    }
  }
  attr {
    key: "dtype"
    value {
      type: DT_FLOAT
    }
  }
  attr {
    key: "value"
    value {
      tensor {
        dtype: DT_FLOAT
        tensor_shape {
        }
        float_val: 0.06718548387289047
      }
    }
  }
}
node {
  name: "resnet_v1_50/block1/unit_1/bottleneck_v1/conv2/weights/Initializer/truncated_normal/TruncatedNormal"
  op: "TruncatedNormal"
  input: "resnet_v1_50/block1/unit_1/bottleneck_v1/conv2/weights/Initializer/truncated_normal/shape"
  attr {
    key: "T"
    value {
      type: DT_INT32
    }
  }
  attr {
    key: "_class"
    value {
      list {
        s: "loc:@resnet_v1_50/block1/unit_1/bottleneck_v1/conv2/weights"
      }
    }
  }
  attr {
    key: "dtype"
    value {
      type: DT_FLOAT
    }
  }
  attr {
    key: "seed"
    value {
      i: 0
    }
  }
  attr {
    key: "seed2"
    value {
      i: 0
    }
  }
}
node {
  name: "resnet_v1_50/block1/unit_1/bottleneck_v1/conv2/weights/Initializer/truncated_normal/mul"
  op: "Mul"
  input: "resnet_v1_50/block1/unit_1/bottleneck_v1/conv2/weights/Initializer/truncated_normal/TruncatedNormal"
  input: "resnet_v1_50/block1/unit_1/bottleneck_v1/conv2/weights/Initializer/truncated_normal/stddev"
  attr {
    key: "T"
    value {
      type: DT_FLOAT
    }
  }
  attr {
    key: "_class"
    value {
      list {
        s: "loc:@resnet_v1_50/block1/unit_1/bottleneck_v1/conv2/weights"
      }
    }
  }
}
node {
  name: "resnet_v1_50/block1/unit_1/bottleneck_v1/conv2/weights/Initializer/truncated_normal"
  op: "Add"
  input: "resnet_v1_50/block1/unit_1/bottleneck_v1/conv2/weights/Initializer/truncated_normal/mul"
  input: "resnet_v1_50/block1/unit_1/bottleneck_v1/conv2/weights/Initializer/truncated_normal/mean"
  attr {
    key: "T"
    value {
      type: DT_FLOAT
    }
  }
  attr {
    key: "_class"
    value {
      list {
        s: "loc:@resnet_v1_50/block1/unit_1/bottleneck_v1/conv2/weights"
      }
    }
  }
}
node {
  name: "resnet_v1_50/block1/unit_1/bottleneck_v1/conv2/weights"
  op: "VariableV2"
  attr {
    key: "_class"
    value {
      list {
        s: "loc:@resnet_v1_50/block1/unit_1/bottleneck_v1/conv2/weights"
      }
    }
  }
  attr {
    key: "container"
    value {
      s: ""
    }
  }
  attr {
    key: "dtype"
    value {
      type: DT_FLOAT
    }
  }
  attr {
    key: "shape"
    value {
      shape {
        dim {
          size: 3
        }
        dim {
          size: 3
        }
        dim {
          size: 64
        }
        dim {
          size: 64
        }
      }
    }
  }
  attr {
    key: "shared_name"
    value {
      s: ""
    }
  }
}
node {
  name: "resnet_v1_50/block1/unit_1/bottleneck_v1/conv2/weights/Assign"
  op: "Assign"
  input: "resnet_v1_50/block1/unit_1/bottleneck_v1/conv2/weights"
  input: "resnet_v1_50/block1/unit_1/bottleneck_v1/conv2/weights/Initializer/truncated_normal"
  attr {
    key: "T"
    value {
      type: DT_FLOAT
    }
  }
  attr {
    key: "_class"
    value {
      list {
        s: "loc:@resnet_v1_50/block1/unit_1/bottleneck_v1/conv2/weights"
      }
    }
  }
  attr {
    key: "use_locking"
    value {
      b: true
    }
  }
  attr {
    key: "validate_shape"
    value {
      b: true
    }
  }
}
node {
  name: "resnet_v1_50/block1/unit_1/bottleneck_v1/conv2/weights/read"
  op: "Identity"
  input: "resnet_v1_50/block1/unit_1/bottleneck_v1/conv2/weights"
  attr {
    key: "T"
    value {
      type: DT_FLOAT
    }
  }
  attr {
    key: "_class"
    value {
      list {
        s: "loc:@resnet_v1_50/block1/unit_1/bottleneck_v1/conv2/weights"
      }
    }
  }
}
node {
  name: "resnet_v1_50/block1/unit_1/bottleneck_v1/conv2/kernel/Regularizer/l2_regularizer/scale"
  op: "Const"
  attr {
    key: "dtype"
    value {
      type: DT_FLOAT
    }
  }
  attr {
    key: "value"
    value {
      tensor {
        dtype: DT_FLOAT
        tensor_shape {
        }
        float_val: 9.999999747378752e-05
      }
    }
  }
}
node {
  name: "resnet_v1_50/block1/unit_1/bottleneck_v1/conv2/kernel/Regularizer/l2_regularizer/L2Loss"
  op: "L2Loss"
  input: "resnet_v1_50/block1/unit_1/bottleneck_v1/conv2/weights/read"
  attr {
    key: "T"
    value {
      type: DT_FLOAT
    }
  }
}
node {
  name: "resnet_v1_50/block1/unit_1/bottleneck_v1/conv2/kernel/Regularizer/l2_regularizer"
  op: "Mul"
  input: "resnet_v1_50/block1/unit_1/bottleneck_v1/conv2/kernel/Regularizer/l2_regularizer/scale"
  input: "resnet_v1_50/block1/unit_1/bottleneck_v1/conv2/kernel/Regularizer/l2_regularizer/L2Loss"
  attr {
    key: "T"
    value {
      type: DT_FLOAT
    }
  }
}
node {
  name: "resnet_v1_50/block1/unit_1/bottleneck_v1/conv2/dilation_rate"
  op: "Const"
  attr {
    key: "dtype"
    value {
      type: DT_INT32
    }
  }
  attr {
    key: "value"
    value {
      tensor {
        dtype: DT_INT32
        tensor_shape {
          dim {
            size: 2
          }
        }
        tensor_content: "\001\000\000\000\001\000\000\000"
      }
    }
  }
}
node {
  name: "resnet_v1_50/block1/unit_1/bottleneck_v1/conv2/Conv2D"
  op: "Conv2D"
  input: "resnet_v1_50/block1/unit_1/bottleneck_v1/conv1/Relu"
  input: "resnet_v1_50/block1/unit_1/bottleneck_v1/conv2/weights/read"
  attr {
    key: "T"
    value {
      type: DT_FLOAT
    }
  }
  attr {
    key: "data_format"
    value {
      s: "NHWC"
    }
  }
  attr {
    key: "dilations"
    value {
      list {
        i: 1
        i: 1
        i: 1
        i: 1
      }
    }
  }
  attr {
    key: "explicit_paddings"
    value {
      list {
      }
    }
  }
  attr {
    key: "padding"
    value {
      s: "SAME"
    }
  }
  attr {
    key: "strides"
    value {
      list {
        i: 1
        i: 1
        i: 1
        i: 1
      }
    }
  }
  attr {
    key: "use_cudnn_on_gpu"
    value {
      b: true
    }
  }
}
node {
  name: "resnet_v1_50/block1/unit_1/bottleneck_v1/conv2/BatchNorm/gamma/Initializer/ones"
  op: "Const"
  attr {
    key: "_class"
    value {
      list {
        s: "loc:@resnet_v1_50/block1/unit_1/bottleneck_v1/conv2/BatchNorm/gamma"
      }
    }
  }
  attr {
    key: "dtype"
    value {
      type: DT_FLOAT
    }
  }
  attr {
    key: "value"
    value {
      tensor {
        dtype: DT_FLOAT
        tensor_shape {
          dim {
            size: 64
          }
        }
        float_val: 1.0
      }
    }
  }
}
node {
  name: "resnet_v1_50/block1/unit_1/bottleneck_v1/conv2/BatchNorm/gamma"
  op: "VariableV2"
  attr {
    key: "_class"
    value {
      list {
        s: "loc:@resnet_v1_50/block1/unit_1/bottleneck_v1/conv2/BatchNorm/gamma"
      }
    }
  }
  attr {
    key: "container"
    value {
      s: ""
    }
  }
  attr {
    key: "dtype"
    value {
      type: DT_FLOAT
    }
  }
  attr {
    key: "shape"
    value {
      shape {
        dim {
          size: 64
        }
      }
    }
  }
  attr {
    key: "shared_name"
    value {
      s: ""
    }
  }
}
node {
  name: "resnet_v1_50/block1/unit_1/bottleneck_v1/conv2/BatchNorm/gamma/Assign"
  op: "Assign"
  input: "resnet_v1_50/block1/unit_1/bottleneck_v1/conv2/BatchNorm/gamma"
  input: "resnet_v1_50/block1/unit_1/bottleneck_v1/conv2/BatchNorm/gamma/Initializer/ones"
  attr {
    key: "T"
    value {
      type: DT_FLOAT
    }
  }
  attr {
    key: "_class"
    value {
      list {
        s: "loc:@resnet_v1_50/block1/unit_1/bottleneck_v1/conv2/BatchNorm/gamma"
      }
    }
  }
  attr {
    key: "use_locking"
    value {
      b: true
    }
  }
  attr {
    key: "validate_shape"
    value {
      b: true
    }
  }
}
node {
  name: "resnet_v1_50/block1/unit_1/bottleneck_v1/conv2/BatchNorm/gamma/read"
  op: "Identity"
  input: "resnet_v1_50/block1/unit_1/bottleneck_v1/conv2/BatchNorm/gamma"
  attr {
    key: "T"
    value {
      type: DT_FLOAT
    }
  }
  attr {
    key: "_class"
    value {
      list {
        s: "loc:@resnet_v1_50/block1/unit_1/bottleneck_v1/conv2/BatchNorm/gamma"
      }
    }
  }
}
node {
  name: "resnet_v1_50/block1/unit_1/bottleneck_v1/conv2/BatchNorm/beta/Initializer/zeros"
  op: "Const"
  attr {
    key: "_class"
    value {
      list {
        s: "loc:@resnet_v1_50/block1/unit_1/bottleneck_v1/conv2/BatchNorm/beta"
      }
    }
  }
  attr {
    key: "dtype"
    value {
      type: DT_FLOAT
    }
  }
  attr {
    key: "value"
    value {
      tensor {
        dtype: DT_FLOAT
        tensor_shape {
          dim {
            size: 64
          }
        }
        float_val: 0.0
      }
    }
  }
}
node {
  name: "resnet_v1_50/block1/unit_1/bottleneck_v1/conv2/BatchNorm/beta"
  op: "VariableV2"
  attr {
    key: "_class"
    value {
      list {
        s: "loc:@resnet_v1_50/block1/unit_1/bottleneck_v1/conv2/BatchNorm/beta"
      }
    }
  }
  attr {
    key: "container"
    value {
      s: ""
    }
  }
  attr {
    key: "dtype"
    value {
      type: DT_FLOAT
    }
  }
  attr {
    key: "shape"
    value {
      shape {
        dim {
          size: 64
        }
      }
    }
  }
  attr {
    key: "shared_name"
    value {
      s: ""
    }
  }
}
node {
  name: "resnet_v1_50/block1/unit_1/bottleneck_v1/conv2/BatchNorm/beta/Assign"
  op: "Assign"
  input: "resnet_v1_50/block1/unit_1/bottleneck_v1/conv2/BatchNorm/beta"
  input: "resnet_v1_50/block1/unit_1/bottleneck_v1/conv2/BatchNorm/beta/Initializer/zeros"
  attr {
    key: "T"
    value {
      type: DT_FLOAT
    }
  }
  attr {
    key: "_class"
    value {
      list {
        s: "loc:@resnet_v1_50/block1/unit_1/bottleneck_v1/conv2/BatchNorm/beta"
      }
    }
  }
  attr {
    key: "use_locking"
    value {
      b: true
    }
  }
  attr {
    key: "validate_shape"
    value {
      b: true
    }
  }
}
node {
  name: "resnet_v1_50/block1/unit_1/bottleneck_v1/conv2/BatchNorm/beta/read"
  op: "Identity"
  input: "resnet_v1_50/block1/unit_1/bottleneck_v1/conv2/BatchNorm/beta"
  attr {
    key: "T"
    value {
      type: DT_FLOAT
    }
  }
  attr {
    key: "_class"
    value {
      list {
        s: "loc:@resnet_v1_50/block1/unit_1/bottleneck_v1/conv2/BatchNorm/beta"
      }
    }
  }
}
node {
  name: "resnet_v1_50/block1/unit_1/bottleneck_v1/conv2/BatchNorm/moving_mean/Initializer/zeros"
  op: "Const"
  attr {
    key: "_class"
    value {
      list {
        s: "loc:@resnet_v1_50/block1/unit_1/bottleneck_v1/conv2/BatchNorm/moving_mean"
      }
    }
  }
  attr {
    key: "dtype"
    value {
      type: DT_FLOAT
    }
  }
  attr {
    key: "value"
    value {
      tensor {
        dtype: DT_FLOAT
        tensor_shape {
          dim {
            size: 64
          }
        }
        float_val: 0.0
      }
    }
  }
}
node {
  name: "resnet_v1_50/block1/unit_1/bottleneck_v1/conv2/BatchNorm/moving_mean"
  op: "VariableV2"
  attr {
    key: "_class"
    value {
      list {
        s: "loc:@resnet_v1_50/block1/unit_1/bottleneck_v1/conv2/BatchNorm/moving_mean"
      }
    }
  }
  attr {
    key: "container"
    value {
      s: ""
    }
  }
  attr {
    key: "dtype"
    value {
      type: DT_FLOAT
    }
  }
  attr {
    key: "shape"
    value {
      shape {
        dim {
          size: 64
        }
      }
    }
  }
  attr {
    key: "shared_name"
    value {
      s: ""
    }
  }
}
node {
  name: "resnet_v1_50/block1/unit_1/bottleneck_v1/conv2/BatchNorm/moving_mean/Assign"
  op: "Assign"
  input: "resnet_v1_50/block1/unit_1/bottleneck_v1/conv2/BatchNorm/moving_mean"
  input: "resnet_v1_50/block1/unit_1/bottleneck_v1/conv2/BatchNorm/moving_mean/Initializer/zeros"
  attr {
    key: "T"
    value {
      type: DT_FLOAT
    }
  }
  attr {
    key: "_class"
    value {
      list {
        s: "loc:@resnet_v1_50/block1/unit_1/bottleneck_v1/conv2/BatchNorm/moving_mean"
      }
    }
  }
  attr {
    key: "use_locking"
    value {
      b: true
    }
  }
  attr {
    key: "validate_shape"
    value {
      b: true
    }
  }
}
node {
  name: "resnet_v1_50/block1/unit_1/bottleneck_v1/conv2/BatchNorm/moving_mean/read"
  op: "Identity"
  input: "resnet_v1_50/block1/unit_1/bottleneck_v1/conv2/BatchNorm/moving_mean"
  attr {
    key: "T"
    value {
      type: DT_FLOAT
    }
  }
  attr {
    key: "_class"
    value {
      list {
        s: "loc:@resnet_v1_50/block1/unit_1/bottleneck_v1/conv2/BatchNorm/moving_mean"
      }
    }
  }
}
node {
  name: "resnet_v1_50/block1/unit_1/bottleneck_v1/conv2/BatchNorm/moving_variance/Initializer/ones"
  op: "Const"
  attr {
    key: "_class"
    value {
      list {
        s: "loc:@resnet_v1_50/block1/unit_1/bottleneck_v1/conv2/BatchNorm/moving_variance"
      }
    }
  }
  attr {
    key: "dtype"
    value {
      type: DT_FLOAT
    }
  }
  attr {
    key: "value"
    value {
      tensor {
        dtype: DT_FLOAT
        tensor_shape {
          dim {
            size: 64
          }
        }
        float_val: 1.0
      }
    }
  }
}
node {
  name: "resnet_v1_50/block1/unit_1/bottleneck_v1/conv2/BatchNorm/moving_variance"
  op: "VariableV2"
  attr {
    key: "_class"
    value {
      list {
        s: "loc:@resnet_v1_50/block1/unit_1/bottleneck_v1/conv2/BatchNorm/moving_variance"
      }
    }
  }
  attr {
    key: "container"
    value {
      s: ""
    }
  }
  attr {
    key: "dtype"
    value {
      type: DT_FLOAT
    }
  }
  attr {
    key: "shape"
    value {
      shape {
        dim {
          size: 64
        }
      }
    }
  }
  attr {
    key: "shared_name"
    value {
      s: ""
    }
  }
}
node {
  name: "resnet_v1_50/block1/unit_1/bottleneck_v1/conv2/BatchNorm/moving_variance/Assign"
  op: "Assign"
  input: "resnet_v1_50/block1/unit_1/bottleneck_v1/conv2/BatchNorm/moving_variance"
  input: "resnet_v1_50/block1/unit_1/bottleneck_v1/conv2/BatchNorm/moving_variance/Initializer/ones"
  attr {
    key: "T"
    value {
      type: DT_FLOAT
    }
  }
  attr {
    key: "_class"
    value {
      list {
        s: "loc:@resnet_v1_50/block1/unit_1/bottleneck_v1/conv2/BatchNorm/moving_variance"
      }
    }
  }
  attr {
    key: "use_locking"
    value {
      b: true
    }
  }
  attr {
    key: "validate_shape"
    value {
      b: true
    }
  }
}
node {
  name: "resnet_v1_50/block1/unit_1/bottleneck_v1/conv2/BatchNorm/moving_variance/read"
  op: "Identity"
  input: "resnet_v1_50/block1/unit_1/bottleneck_v1/conv2/BatchNorm/moving_variance"
  attr {
    key: "T"
    value {
      type: DT_FLOAT
    }
  }
  attr {
    key: "_class"
    value {
      list {
        s: "loc:@resnet_v1_50/block1/unit_1/bottleneck_v1/conv2/BatchNorm/moving_variance"
      }
    }
  }
}
node {
  name: "resnet_v1_50/block1/unit_1/bottleneck_v1/conv2/BatchNorm/FusedBatchNormV3"
  op: "FusedBatchNormV3"
  input: "resnet_v1_50/block1/unit_1/bottleneck_v1/conv2/Conv2D"
  input: "resnet_v1_50/block1/unit_1/bottleneck_v1/conv2/BatchNorm/gamma/read"
  input: "resnet_v1_50/block1/unit_1/bottleneck_v1/conv2/BatchNorm/beta/read"
  input: "resnet_v1_50/block1/unit_1/bottleneck_v1/conv2/BatchNorm/moving_mean/read"
  input: "resnet_v1_50/block1/unit_1/bottleneck_v1/conv2/BatchNorm/moving_variance/read"
  attr {
    key: "T"
    value {
      type: DT_FLOAT
    }
  }
  attr {
    key: "U"
    value {
      type: DT_FLOAT
    }
  }
  attr {
    key: "data_format"
    value {
      s: "NHWC"
    }
  }
  attr {
    key: "epsilon"
    value {
      f: 1.0009999641624745e-05
    }
  }
  attr {
    key: "is_training"
    value {
      b: false
    }
  }
}
node {
  name: "resnet_v1_50/block1/unit_1/bottleneck_v1/conv2/BatchNorm/Const"
  op: "Const"
  attr {
    key: "dtype"
    value {
      type: DT_FLOAT
    }
  }
  attr {
    key: "value"
    value {
      tensor {
        dtype: DT_FLOAT
        tensor_shape {
        }
        float_val: 0.996999979019165
      }
    }
  }
}
node {
  name: "resnet_v1_50/block1/unit_1/bottleneck_v1/conv2/Relu"
  op: "Relu"
  input: "resnet_v1_50/block1/unit_1/bottleneck_v1/conv2/BatchNorm/FusedBatchNormV3"
  attr {
    key: "T"
    value {
      type: DT_FLOAT
    }
  }
}
node {
  name: "resnet_v1_50/block1/unit_1/bottleneck_v1/conv3/weights/Initializer/truncated_normal/shape"
  op: "Const"
  attr {
    key: "_class"
    value {
      list {
        s: "loc:@resnet_v1_50/block1/unit_1/bottleneck_v1/conv3/weights"
      }
    }
  }
  attr {
    key: "dtype"
    value {
      type: DT_INT32
    }
  }
  attr {
    key: "value"
    value {
      tensor {
        dtype: DT_INT32
        tensor_shape {
          dim {
            size: 4
          }
        }
        tensor_content: "\001\000\000\000\001\000\000\000@\000\000\000\000\001\000\000"
      }
    }
  }
}
node {
  name: "resnet_v1_50/block1/unit_1/bottleneck_v1/conv3/weights/Initializer/truncated_normal/mean"
  op: "Const"
  attr {
    key: "_class"
    value {
      list {
        s: "loc:@resnet_v1_50/block1/unit_1/bottleneck_v1/conv3/weights"
      }
    }
  }
  attr {
    key: "dtype"
    value {
      type: DT_FLOAT
    }
  }
  attr {
    key: "value"
    value {
      tensor {
        dtype: DT_FLOAT
        tensor_shape {
        }
        float_val: 0.0
      }
    }
  }
}
node {
  name: "resnet_v1_50/block1/unit_1/bottleneck_v1/conv3/weights/Initializer/truncated_normal/stddev"
  op: "Const"
  attr {
    key: "_class"
    value {
      list {
        s: "loc:@resnet_v1_50/block1/unit_1/bottleneck_v1/conv3/weights"
      }
    }
  }
  attr {
    key: "dtype"
    value {
      type: DT_FLOAT
    }
  }
  attr {
    key: "value"
    value {
      tensor {
        dtype: DT_FLOAT
        tensor_shape {
        }
        float_val: 0.20155644416809082
      }
    }
  }
}
node {
  name: "resnet_v1_50/block1/unit_1/bottleneck_v1/conv3/weights/Initializer/truncated_normal/TruncatedNormal"
  op: "TruncatedNormal"
  input: "resnet_v1_50/block1/unit_1/bottleneck_v1/conv3/weights/Initializer/truncated_normal/shape"
  attr {
    key: "T"
    value {
      type: DT_INT32
    }
  }
  attr {
    key: "_class"
    value {
      list {
        s: "loc:@resnet_v1_50/block1/unit_1/bottleneck_v1/conv3/weights"
      }
    }
  }
  attr {
    key: "dtype"
    value {
      type: DT_FLOAT
    }
  }
  attr {
    key: "seed"
    value {
      i: 0
    }
  }
  attr {
    key: "seed2"
    value {
      i: 0
    }
  }
}
node {
  name: "resnet_v1_50/block1/unit_1/bottleneck_v1/conv3/weights/Initializer/truncated_normal/mul"
  op: "Mul"
  input: "resnet_v1_50/block1/unit_1/bottleneck_v1/conv3/weights/Initializer/truncated_normal/TruncatedNormal"
  input: "resnet_v1_50/block1/unit_1/bottleneck_v1/conv3/weights/Initializer/truncated_normal/stddev"
  attr {
    key: "T"
    value {
      type: DT_FLOAT
    }
  }
  attr {
    key: "_class"
    value {
      list {
        s: "loc:@resnet_v1_50/block1/unit_1/bottleneck_v1/conv3/weights"
      }
    }
  }
}
node {
  name: "resnet_v1_50/block1/unit_1/bottleneck_v1/conv3/weights/Initializer/truncated_normal"
  op: "Add"
  input: "resnet_v1_50/block1/unit_1/bottleneck_v1/conv3/weights/Initializer/truncated_normal/mul"
  input: "resnet_v1_50/block1/unit_1/bottleneck_v1/conv3/weights/Initializer/truncated_normal/mean"
  attr {
    key: "T"
    value {
      type: DT_FLOAT
    }
  }
  attr {
    key: "_class"
    value {
      list {
        s: "loc:@resnet_v1_50/block1/unit_1/bottleneck_v1/conv3/weights"
      }
    }
  }
}
node {
  name: "resnet_v1_50/block1/unit_1/bottleneck_v1/conv3/weights"
  op: "VariableV2"
  attr {
    key: "_class"
    value {
      list {
        s: "loc:@resnet_v1_50/block1/unit_1/bottleneck_v1/conv3/weights"
      }
    }
  }
  attr {
    key: "container"
    value {
      s: ""
    }
  }
  attr {
    key: "dtype"
    value {
      type: DT_FLOAT
    }
  }
  attr {
    key: "shape"
    value {
      shape {
        dim {
          size: 1
        }
        dim {
          size: 1
        }
        dim {
          size: 64
        }
        dim {
          size: 256
        }
      }
    }
  }
  attr {
    key: "shared_name"
    value {
      s: ""
    }
  }
}
node {
  name: "resnet_v1_50/block1/unit_1/bottleneck_v1/conv3/weights/Assign"
  op: "Assign"
  input: "resnet_v1_50/block1/unit_1/bottleneck_v1/conv3/weights"
  input: "resnet_v1_50/block1/unit_1/bottleneck_v1/conv3/weights/Initializer/truncated_normal"
  attr {
    key: "T"
    value {
      type: DT_FLOAT
    }
  }
  attr {
    key: "_class"
    value {
      list {
        s: "loc:@resnet_v1_50/block1/unit_1/bottleneck_v1/conv3/weights"
      }
    }
  }
  attr {
    key: "use_locking"
    value {
      b: true
    }
  }
  attr {
    key: "validate_shape"
    value {
      b: true
    }
  }
}
node {
  name: "resnet_v1_50/block1/unit_1/bottleneck_v1/conv3/weights/read"
  op: "Identity"
  input: "resnet_v1_50/block1/unit_1/bottleneck_v1/conv3/weights"
  attr {
    key: "T"
    value {
      type: DT_FLOAT
    }
  }
  attr {
    key: "_class"
    value {
      list {
        s: "loc:@resnet_v1_50/block1/unit_1/bottleneck_v1/conv3/weights"
      }
    }
  }
}
node {
  name: "resnet_v1_50/block1/unit_1/bottleneck_v1/conv3/kernel/Regularizer/l2_regularizer/scale"
  op: "Const"
  attr {
    key: "dtype"
    value {
      type: DT_FLOAT
    }
  }
  attr {
    key: "value"
    value {
      tensor {
        dtype: DT_FLOAT
        tensor_shape {
        }
        float_val: 9.999999747378752e-05
      }
    }
  }
}
node {
  name: "resnet_v1_50/block1/unit_1/bottleneck_v1/conv3/kernel/Regularizer/l2_regularizer/L2Loss"
  op: "L2Loss"
  input: "resnet_v1_50/block1/unit_1/bottleneck_v1/conv3/weights/read"
  attr {
    key: "T"
    value {
      type: DT_FLOAT
    }
  }
}
node {
  name: "resnet_v1_50/block1/unit_1/bottleneck_v1/conv3/kernel/Regularizer/l2_regularizer"
  op: "Mul"
  input: "resnet_v1_50/block1/unit_1/bottleneck_v1/conv3/kernel/Regularizer/l2_regularizer/scale"
  input: "resnet_v1_50/block1/unit_1/bottleneck_v1/conv3/kernel/Regularizer/l2_regularizer/L2Loss"
  attr {
    key: "T"
    value {
      type: DT_FLOAT
    }
  }
}
node {
  name: "resnet_v1_50/block1/unit_1/bottleneck_v1/conv3/dilation_rate"
  op: "Const"
  attr {
    key: "dtype"
    value {
      type: DT_INT32
    }
  }
  attr {
    key: "value"
    value {
      tensor {
        dtype: DT_INT32
        tensor_shape {
          dim {
            size: 2
          }
        }
        tensor_content: "\001\000\000\000\001\000\000\000"
      }
    }
  }
}
node {
  name: "resnet_v1_50/block1/unit_1/bottleneck_v1/conv3/Conv2D"
  op: "Conv2D"
  input: "resnet_v1_50/block1/unit_1/bottleneck_v1/conv2/Relu"
  input: "resnet_v1_50/block1/unit_1/bottleneck_v1/conv3/weights/read"
  attr {
    key: "T"
    value {
      type: DT_FLOAT
    }
  }
  attr {
    key: "data_format"
    value {
      s: "NHWC"
    }
  }
  attr {
    key: "dilations"
    value {
      list {
        i: 1
        i: 1
        i: 1
        i: 1
      }
    }
  }
  attr {
    key: "explicit_paddings"
    value {
      list {
      }
    }
  }
  attr {
    key: "padding"
    value {
      s: "SAME"
    }
  }
  attr {
    key: "strides"
    value {
      list {
        i: 1
        i: 1
        i: 1
        i: 1
      }
    }
  }
  attr {
    key: "use_cudnn_on_gpu"
    value {
      b: true
    }
  }
}
node {
  name: "resnet_v1_50/block1/unit_1/bottleneck_v1/conv3/BatchNorm/gamma/Initializer/ones"
  op: "Const"
  attr {
    key: "_class"
    value {
      list {
        s: "loc:@resnet_v1_50/block1/unit_1/bottleneck_v1/conv3/BatchNorm/gamma"
      }
    }
  }
  attr {
    key: "dtype"
    value {
      type: DT_FLOAT
    }
  }
  attr {
    key: "value"
    value {
      tensor {
        dtype: DT_FLOAT
        tensor_shape {
          dim {
            size: 256
          }
        }
        float_val: 1.0
      }
    }
  }
}
node {
  name: "resnet_v1_50/block1/unit_1/bottleneck_v1/conv3/BatchNorm/gamma"
  op: "VariableV2"
  attr {
    key: "_class"
    value {
      list {
        s: "loc:@resnet_v1_50/block1/unit_1/bottleneck_v1/conv3/BatchNorm/gamma"
      }
    }
  }
  attr {
    key: "container"
    value {
      s: ""
    }
  }
  attr {
    key: "dtype"
    value {
      type: DT_FLOAT
    }
  }
  attr {
    key: "shape"
    value {
      shape {
        dim {
          size: 256
        }
      }
    }
  }
  attr {
    key: "shared_name"
    value {
      s: ""
    }
  }
}
node {
  name: "resnet_v1_50/block1/unit_1/bottleneck_v1/conv3/BatchNorm/gamma/Assign"
  op: "Assign"
  input: "resnet_v1_50/block1/unit_1/bottleneck_v1/conv3/BatchNorm/gamma"
  input: "resnet_v1_50/block1/unit_1/bottleneck_v1/conv3/BatchNorm/gamma/Initializer/ones"
  attr {
    key: "T"
    value {
      type: DT_FLOAT
    }
  }
  attr {
    key: "_class"
    value {
      list {
        s: "loc:@resnet_v1_50/block1/unit_1/bottleneck_v1/conv3/BatchNorm/gamma"
      }
    }
  }
  attr {
    key: "use_locking"
    value {
      b: true
    }
  }
  attr {
    key: "validate_shape"
    value {
      b: true
    }
  }
}
node {
  name: "resnet_v1_50/block1/unit_1/bottleneck_v1/conv3/BatchNorm/gamma/read"
  op: "Identity"
  input: "resnet_v1_50/block1/unit_1/bottleneck_v1/conv3/BatchNorm/gamma"
  attr {
    key: "T"
    value {
      type: DT_FLOAT
    }
  }
  attr {
    key: "_class"
    value {
      list {
        s: "loc:@resnet_v1_50/block1/unit_1/bottleneck_v1/conv3/BatchNorm/gamma"
      }
    }
  }
}
node {
  name: "resnet_v1_50/block1/unit_1/bottleneck_v1/conv3/BatchNorm/beta/Initializer/zeros"
  op: "Const"
  attr {
    key: "_class"
    value {
      list {
        s: "loc:@resnet_v1_50/block1/unit_1/bottleneck_v1/conv3/BatchNorm/beta"
      }
    }
  }
  attr {
    key: "dtype"
    value {
      type: DT_FLOAT
    }
  }
  attr {
    key: "value"
    value {
      tensor {
        dtype: DT_FLOAT
        tensor_shape {
          dim {
            size: 256
          }
        }
        float_val: 0.0
      }
    }
  }
}
node {
  name: "resnet_v1_50/block1/unit_1/bottleneck_v1/conv3/BatchNorm/beta"
  op: "VariableV2"
  attr {
    key: "_class"
    value {
      list {
        s: "loc:@resnet_v1_50/block1/unit_1/bottleneck_v1/conv3/BatchNorm/beta"
      }
    }
  }
  attr {
    key: "container"
    value {
      s: ""
    }
  }
  attr {
    key: "dtype"
    value {
      type: DT_FLOAT
    }
  }
  attr {
    key: "shape"
    value {
      shape {
        dim {
          size: 256
        }
      }
    }
  }
  attr {
    key: "shared_name"
    value {
      s: ""
    }
  }
}
node {
  name: "resnet_v1_50/block1/unit_1/bottleneck_v1/conv3/BatchNorm/beta/Assign"
  op: "Assign"
  input: "resnet_v1_50/block1/unit_1/bottleneck_v1/conv3/BatchNorm/beta"
  input: "resnet_v1_50/block1/unit_1/bottleneck_v1/conv3/BatchNorm/beta/Initializer/zeros"
  attr {
    key: "T"
    value {
      type: DT_FLOAT
    }
  }
  attr {
    key: "_class"
    value {
      list {
        s: "loc:@resnet_v1_50/block1/unit_1/bottleneck_v1/conv3/BatchNorm/beta"
      }
    }
  }
  attr {
    key: "use_locking"
    value {
      b: true
    }
  }
  attr {
    key: "validate_shape"
    value {
      b: true
    }
  }
}
node {
  name: "resnet_v1_50/block1/unit_1/bottleneck_v1/conv3/BatchNorm/beta/read"
  op: "Identity"
  input: "resnet_v1_50/block1/unit_1/bottleneck_v1/conv3/BatchNorm/beta"
  attr {
    key: "T"
    value {
      type: DT_FLOAT
    }
  }
  attr {
    key: "_class"
    value {
      list {
        s: "loc:@resnet_v1_50/block1/unit_1/bottleneck_v1/conv3/BatchNorm/beta"
      }
    }
  }
}
node {
  name: "resnet_v1_50/block1/unit_1/bottleneck_v1/conv3/BatchNorm/moving_mean/Initializer/zeros"
  op: "Const"
  attr {
    key: "_class"
    value {
      list {
        s: "loc:@resnet_v1_50/block1/unit_1/bottleneck_v1/conv3/BatchNorm/moving_mean"
      }
    }
  }
  attr {
    key: "dtype"
    value {
      type: DT_FLOAT
    }
  }
  attr {
    key: "value"
    value {
      tensor {
        dtype: DT_FLOAT
        tensor_shape {
          dim {
            size: 256
          }
        }
        float_val: 0.0
      }
    }
  }
}
node {
  name: "resnet_v1_50/block1/unit_1/bottleneck_v1/conv3/BatchNorm/moving_mean"
  op: "VariableV2"
  attr {
    key: "_class"
    value {
      list {
        s: "loc:@resnet_v1_50/block1/unit_1/bottleneck_v1/conv3/BatchNorm/moving_mean"
      }
    }
  }
  attr {
    key: "container"
    value {
      s: ""
    }
  }
  attr {
    key: "dtype"
    value {
      type: DT_FLOAT
    }
  }
  attr {
    key: "shape"
    value {
      shape {
        dim {
          size: 256
        }
      }
    }
  }
  attr {
    key: "shared_name"
    value {
      s: ""
    }
  }
}
node {
  name: "resnet_v1_50/block1/unit_1/bottleneck_v1/conv3/BatchNorm/moving_mean/Assign"
  op: "Assign"
  input: "resnet_v1_50/block1/unit_1/bottleneck_v1/conv3/BatchNorm/moving_mean"
  input: "resnet_v1_50/block1/unit_1/bottleneck_v1/conv3/BatchNorm/moving_mean/Initializer/zeros"
  attr {
    key: "T"
    value {
      type: DT_FLOAT
    }
  }
  attr {
    key: "_class"
    value {
      list {
        s: "loc:@resnet_v1_50/block1/unit_1/bottleneck_v1/conv3/BatchNorm/moving_mean"
      }
    }
  }
  attr {
    key: "use_locking"
    value {
      b: true
    }
  }
  attr {
    key: "validate_shape"
    value {
      b: true
    }
  }
}
node {
  name: "resnet_v1_50/block1/unit_1/bottleneck_v1/conv3/BatchNorm/moving_mean/read"
  op: "Identity"
  input: "resnet_v1_50/block1/unit_1/bottleneck_v1/conv3/BatchNorm/moving_mean"
  attr {
    key: "T"
    value {
      type: DT_FLOAT
    }
  }
  attr {
    key: "_class"
    value {
      list {
        s: "loc:@resnet_v1_50/block1/unit_1/bottleneck_v1/conv3/BatchNorm/moving_mean"
      }
    }
  }
}
node {
  name: "resnet_v1_50/block1/unit_1/bottleneck_v1/conv3/BatchNorm/moving_variance/Initializer/ones"
  op: "Const"
  attr {
    key: "_class"
    value {
      list {
        s: "loc:@resnet_v1_50/block1/unit_1/bottleneck_v1/conv3/BatchNorm/moving_variance"
      }
    }
  }
  attr {
    key: "dtype"
    value {
      type: DT_FLOAT
    }
  }
  attr {
    key: "value"
    value {
      tensor {
        dtype: DT_FLOAT
        tensor_shape {
          dim {
            size: 256
          }
        }
        float_val: 1.0
      }
    }
  }
}
node {
  name: "resnet_v1_50/block1/unit_1/bottleneck_v1/conv3/BatchNorm/moving_variance"
  op: "VariableV2"
  attr {
    key: "_class"
    value {
      list {
        s: "loc:@resnet_v1_50/block1/unit_1/bottleneck_v1/conv3/BatchNorm/moving_variance"
      }
    }
  }
  attr {
    key: "container"
    value {
      s: ""
    }
  }
  attr {
    key: "dtype"
    value {
      type: DT_FLOAT
    }
  }
  attr {
    key: "shape"
    value {
      shape {
        dim {
          size: 256
        }
      }
    }
  }
  attr {
    key: "shared_name"
    value {
      s: ""
    }
  }
}
node {
  name: "resnet_v1_50/block1/unit_1/bottleneck_v1/conv3/BatchNorm/moving_variance/Assign"
  op: "Assign"
  input: "resnet_v1_50/block1/unit_1/bottleneck_v1/conv3/BatchNorm/moving_variance"
  input: "resnet_v1_50/block1/unit_1/bottleneck_v1/conv3/BatchNorm/moving_variance/Initializer/ones"
  attr {
    key: "T"
    value {
      type: DT_FLOAT
    }
  }
  attr {
    key: "_class"
    value {
      list {
        s: "loc:@resnet_v1_50/block1/unit_1/bottleneck_v1/conv3/BatchNorm/moving_variance"
      }
    }
  }
  attr {
    key: "use_locking"
    value {
      b: true
    }
  }
  attr {
    key: "validate_shape"
    value {
      b: true
    }
  }
}
node {
  name: "resnet_v1_50/block1/unit_1/bottleneck_v1/conv3/BatchNorm/moving_variance/read"
  op: "Identity"
  input: "resnet_v1_50/block1/unit_1/bottleneck_v1/conv3/BatchNorm/moving_variance"
  attr {
    key: "T"
    value {
      type: DT_FLOAT
    }
  }
  attr {
    key: "_class"
    value {
      list {
        s: "loc:@resnet_v1_50/block1/unit_1/bottleneck_v1/conv3/BatchNorm/moving_variance"
      }
    }
  }
}
node {
  name: "resnet_v1_50/block1/unit_1/bottleneck_v1/conv3/BatchNorm/FusedBatchNormV3"
  op: "FusedBatchNormV3"
  input: "resnet_v1_50/block1/unit_1/bottleneck_v1/conv3/Conv2D"
  input: "resnet_v1_50/block1/unit_1/bottleneck_v1/conv3/BatchNorm/gamma/read"
  input: "resnet_v1_50/block1/unit_1/bottleneck_v1/conv3/BatchNorm/beta/read"
  input: "resnet_v1_50/block1/unit_1/bottleneck_v1/conv3/BatchNorm/moving_mean/read"
  input: "resnet_v1_50/block1/unit_1/bottleneck_v1/conv3/BatchNorm/moving_variance/read"
  attr {
    key: "T"
    value {
      type: DT_FLOAT
    }
  }
  attr {
    key: "U"
    value {
      type: DT_FLOAT
    }
  }
  attr {
    key: "data_format"
    value {
      s: "NHWC"
    }
  }
  attr {
    key: "epsilon"
    value {
      f: 1.0009999641624745e-05
    }
  }
  attr {
    key: "is_training"
    value {
      b: false
    }
  }
}
node {
  name: "resnet_v1_50/block1/unit_1/bottleneck_v1/conv3/BatchNorm/Const"
  op: "Const"
  attr {
    key: "dtype"
    value {
      type: DT_FLOAT
    }
  }
  attr {
    key: "value"
    value {
      tensor {
        dtype: DT_FLOAT
        tensor_shape {
        }
        float_val: 0.996999979019165
      }
    }
  }
}
node {
  name: "resnet_v1_50/block1/unit_1/bottleneck_v1/add"
  op: "AddV2"
  input: "resnet_v1_50/block1/unit_1/bottleneck_v1/shortcut/BatchNorm/FusedBatchNormV3"
  input: "resnet_v1_50/block1/unit_1/bottleneck_v1/conv3/BatchNorm/FusedBatchNormV3"
  attr {
    key: "T"
    value {
      type: DT_FLOAT
    }
  }
}
node {
  name: "resnet_v1_50/block1/unit_1/bottleneck_v1/Relu"
  op: "Relu"
  input: "resnet_v1_50/block1/unit_1/bottleneck_v1/add"
  attr {
    key: "T"
    value {
      type: DT_FLOAT
    }
  }
}
node {
  name: "resnet_v1_50/block1/unit_2/bottleneck_v1/conv1/weights/Initializer/truncated_normal/shape"
  op: "Const"
  attr {
    key: "_class"
    value {
      list {
        s: "loc:@resnet_v1_50/block1/unit_2/bottleneck_v1/conv1/weights"
      }
    }
  }
  attr {
    key: "dtype"
    value {
      type: DT_INT32
    }
  }
  attr {
    key: "value"
    value {
      tensor {
        dtype: DT_INT32
        tensor_shape {
          dim {
            size: 4
          }
        }
        tensor_content: "\001\000\000\000\001\000\000\000\000\001\000\000@\000\000\000"
      }
    }
  }
}
node {
  name: "resnet_v1_50/block1/unit_2/bottleneck_v1/conv1/weights/Initializer/truncated_normal/mean"
  op: "Const"
  attr {
    key: "_class"
    value {
      list {
        s: "loc:@resnet_v1_50/block1/unit_2/bottleneck_v1/conv1/weights"
      }
    }
  }
  attr {
    key: "dtype"
    value {
      type: DT_FLOAT
    }
  }
  attr {
    key: "value"
    value {
      tensor {
        dtype: DT_FLOAT
        tensor_shape {
        }
        float_val: 0.0
      }
    }
  }
}
node {
  name: "resnet_v1_50/block1/unit_2/bottleneck_v1/conv1/weights/Initializer/truncated_normal/stddev"
  op: "Const"
  attr {
    key: "_class"
    value {
      list {
        s: "loc:@resnet_v1_50/block1/unit_2/bottleneck_v1/conv1/weights"
      }
    }
  }
  attr {
    key: "dtype"
    value {
      type: DT_FLOAT
    }
  }
  attr {
    key: "value"
    value {
      tensor {
        dtype: DT_FLOAT
        tensor_shape {
        }
        float_val: 0.10077822208404541
      }
    }
  }
}
node {
  name: "resnet_v1_50/block1/unit_2/bottleneck_v1/conv1/weights/Initializer/truncated_normal/TruncatedNormal"
  op: "TruncatedNormal"
  input: "resnet_v1_50/block1/unit_2/bottleneck_v1/conv1/weights/Initializer/truncated_normal/shape"
  attr {
    key: "T"
    value {
      type: DT_INT32
    }
  }
  attr {
    key: "_class"
    value {
      list {
        s: "loc:@resnet_v1_50/block1/unit_2/bottleneck_v1/conv1/weights"
      }
    }
  }
  attr {
    key: "dtype"
    value {
      type: DT_FLOAT
    }
  }
  attr {
    key: "seed"
    value {
      i: 0
    }
  }
  attr {
    key: "seed2"
    value {
      i: 0
    }
  }
}
node {
  name: "resnet_v1_50/block1/unit_2/bottleneck_v1/conv1/weights/Initializer/truncated_normal/mul"
  op: "Mul"
  input: "resnet_v1_50/block1/unit_2/bottleneck_v1/conv1/weights/Initializer/truncated_normal/TruncatedNormal"
  input: "resnet_v1_50/block1/unit_2/bottleneck_v1/conv1/weights/Initializer/truncated_normal/stddev"
  attr {
    key: "T"
    value {
      type: DT_FLOAT
    }
  }
  attr {
    key: "_class"
    value {
      list {
        s: "loc:@resnet_v1_50/block1/unit_2/bottleneck_v1/conv1/weights"
      }
    }
  }
}
node {
  name: "resnet_v1_50/block1/unit_2/bottleneck_v1/conv1/weights/Initializer/truncated_normal"
  op: "Add"
  input: "resnet_v1_50/block1/unit_2/bottleneck_v1/conv1/weights/Initializer/truncated_normal/mul"
  input: "resnet_v1_50/block1/unit_2/bottleneck_v1/conv1/weights/Initializer/truncated_normal/mean"
  attr {
    key: "T"
    value {
      type: DT_FLOAT
    }
  }
  attr {
    key: "_class"
    value {
      list {
        s: "loc:@resnet_v1_50/block1/unit_2/bottleneck_v1/conv1/weights"
      }
    }
  }
}
node {
  name: "resnet_v1_50/block1/unit_2/bottleneck_v1/conv1/weights"
  op: "VariableV2"
  attr {
    key: "_class"
    value {
      list {
        s: "loc:@resnet_v1_50/block1/unit_2/bottleneck_v1/conv1/weights"
      }
    }
  }
  attr {
    key: "container"
    value {
      s: ""
    }
  }
  attr {
    key: "dtype"
    value {
      type: DT_FLOAT
    }
  }
  attr {
    key: "shape"
    value {
      shape {
        dim {
          size: 1
        }
        dim {
          size: 1
        }
        dim {
          size: 256
        }
        dim {
          size: 64
        }
      }
    }
  }
  attr {
    key: "shared_name"
    value {
      s: ""
    }
  }
}
node {
  name: "resnet_v1_50/block1/unit_2/bottleneck_v1/conv1/weights/Assign"
  op: "Assign"
  input: "resnet_v1_50/block1/unit_2/bottleneck_v1/conv1/weights"
  input: "resnet_v1_50/block1/unit_2/bottleneck_v1/conv1/weights/Initializer/truncated_normal"
  attr {
    key: "T"
    value {
      type: DT_FLOAT
    }
  }
  attr {
    key: "_class"
    value {
      list {
        s: "loc:@resnet_v1_50/block1/unit_2/bottleneck_v1/conv1/weights"
      }
    }
  }
  attr {
    key: "use_locking"
    value {
      b: true
    }
  }
  attr {
    key: "validate_shape"
    value {
      b: true
    }
  }
}
node {
  name: "resnet_v1_50/block1/unit_2/bottleneck_v1/conv1/weights/read"
  op: "Identity"
  input: "resnet_v1_50/block1/unit_2/bottleneck_v1/conv1/weights"
  attr {
    key: "T"
    value {
      type: DT_FLOAT
    }
  }
  attr {
    key: "_class"
    value {
      list {
        s: "loc:@resnet_v1_50/block1/unit_2/bottleneck_v1/conv1/weights"
      }
    }
  }
}
node {
  name: "resnet_v1_50/block1/unit_2/bottleneck_v1/conv1/kernel/Regularizer/l2_regularizer/scale"
  op: "Const"
  attr {
    key: "dtype"
    value {
      type: DT_FLOAT
    }
  }
  attr {
    key: "value"
    value {
      tensor {
        dtype: DT_FLOAT
        tensor_shape {
        }
        float_val: 9.999999747378752e-05
      }
    }
  }
}
node {
  name: "resnet_v1_50/block1/unit_2/bottleneck_v1/conv1/kernel/Regularizer/l2_regularizer/L2Loss"
  op: "L2Loss"
  input: "resnet_v1_50/block1/unit_2/bottleneck_v1/conv1/weights/read"
  attr {
    key: "T"
    value {
      type: DT_FLOAT
    }
  }
}
node {
  name: "resnet_v1_50/block1/unit_2/bottleneck_v1/conv1/kernel/Regularizer/l2_regularizer"
  op: "Mul"
  input: "resnet_v1_50/block1/unit_2/bottleneck_v1/conv1/kernel/Regularizer/l2_regularizer/scale"
  input: "resnet_v1_50/block1/unit_2/bottleneck_v1/conv1/kernel/Regularizer/l2_regularizer/L2Loss"
  attr {
    key: "T"
    value {
      type: DT_FLOAT
    }
  }
}
node {
  name: "resnet_v1_50/block1/unit_2/bottleneck_v1/conv1/dilation_rate"
  op: "Const"
  attr {
    key: "dtype"
    value {
      type: DT_INT32
    }
  }
  attr {
    key: "value"
    value {
      tensor {
        dtype: DT_INT32
        tensor_shape {
          dim {
            size: 2
          }
        }
        tensor_content: "\001\000\000\000\001\000\000\000"
      }
    }
  }
}
node {
  name: "resnet_v1_50/block1/unit_2/bottleneck_v1/conv1/Conv2D"
  op: "Conv2D"
  input: "resnet_v1_50/block1/unit_1/bottleneck_v1/Relu"
  input: "resnet_v1_50/block1/unit_2/bottleneck_v1/conv1/weights/read"
  attr {
    key: "T"
    value {
      type: DT_FLOAT
    }
  }
  attr {
    key: "data_format"
    value {
      s: "NHWC"
    }
  }
  attr {
    key: "dilations"
    value {
      list {
        i: 1
        i: 1
        i: 1
        i: 1
      }
    }
  }
  attr {
    key: "explicit_paddings"
    value {
      list {
      }
    }
  }
  attr {
    key: "padding"
    value {
      s: "SAME"
    }
  }
  attr {
    key: "strides"
    value {
      list {
        i: 1
        i: 1
        i: 1
        i: 1
      }
    }
  }
  attr {
    key: "use_cudnn_on_gpu"
    value {
      b: true
    }
  }
}
node {
  name: "resnet_v1_50/block1/unit_2/bottleneck_v1/conv1/BatchNorm/gamma/Initializer/ones"
  op: "Const"
  attr {
    key: "_class"
    value {
      list {
        s: "loc:@resnet_v1_50/block1/unit_2/bottleneck_v1/conv1/BatchNorm/gamma"
      }
    }
  }
  attr {
    key: "dtype"
    value {
      type: DT_FLOAT
    }
  }
  attr {
    key: "value"
    value {
      tensor {
        dtype: DT_FLOAT
        tensor_shape {
          dim {
            size: 64
          }
        }
        float_val: 1.0
      }
    }
  }
}
node {
  name: "resnet_v1_50/block1/unit_2/bottleneck_v1/conv1/BatchNorm/gamma"
  op: "VariableV2"
  attr {
    key: "_class"
    value {
      list {
        s: "loc:@resnet_v1_50/block1/unit_2/bottleneck_v1/conv1/BatchNorm/gamma"
      }
    }
  }
  attr {
    key: "container"
    value {
      s: ""
    }
  }
  attr {
    key: "dtype"
    value {
      type: DT_FLOAT
    }
  }
  attr {
    key: "shape"
    value {
      shape {
        dim {
          size: 64
        }
      }
    }
  }
  attr {
    key: "shared_name"
    value {
      s: ""
    }
  }
}
node {
  name: "resnet_v1_50/block1/unit_2/bottleneck_v1/conv1/BatchNorm/gamma/Assign"
  op: "Assign"
  input: "resnet_v1_50/block1/unit_2/bottleneck_v1/conv1/BatchNorm/gamma"
  input: "resnet_v1_50/block1/unit_2/bottleneck_v1/conv1/BatchNorm/gamma/Initializer/ones"
  attr {
    key: "T"
    value {
      type: DT_FLOAT
    }
  }
  attr {
    key: "_class"
    value {
      list {
        s: "loc:@resnet_v1_50/block1/unit_2/bottleneck_v1/conv1/BatchNorm/gamma"
      }
    }
  }
  attr {
    key: "use_locking"
    value {
      b: true
    }
  }
  attr {
    key: "validate_shape"
    value {
      b: true
    }
  }
}
node {
  name: "resnet_v1_50/block1/unit_2/bottleneck_v1/conv1/BatchNorm/gamma/read"
  op: "Identity"
  input: "resnet_v1_50/block1/unit_2/bottleneck_v1/conv1/BatchNorm/gamma"
  attr {
    key: "T"
    value {
      type: DT_FLOAT
    }
  }
  attr {
    key: "_class"
    value {
      list {
        s: "loc:@resnet_v1_50/block1/unit_2/bottleneck_v1/conv1/BatchNorm/gamma"
      }
    }
  }
}
node {
  name: "resnet_v1_50/block1/unit_2/bottleneck_v1/conv1/BatchNorm/beta/Initializer/zeros"
  op: "Const"
  attr {
    key: "_class"
    value {
      list {
        s: "loc:@resnet_v1_50/block1/unit_2/bottleneck_v1/conv1/BatchNorm/beta"
      }
    }
  }
  attr {
    key: "dtype"
    value {
      type: DT_FLOAT
    }
  }
  attr {
    key: "value"
    value {
      tensor {
        dtype: DT_FLOAT
        tensor_shape {
          dim {
            size: 64
          }
        }
        float_val: 0.0
      }
    }
  }
}
node {
  name: "resnet_v1_50/block1/unit_2/bottleneck_v1/conv1/BatchNorm/beta"
  op: "VariableV2"
  attr {
    key: "_class"
    value {
      list {
        s: "loc:@resnet_v1_50/block1/unit_2/bottleneck_v1/conv1/BatchNorm/beta"
      }
    }
  }
  attr {
    key: "container"
    value {
      s: ""
    }
  }
  attr {
    key: "dtype"
    value {
      type: DT_FLOAT
    }
  }
  attr {
    key: "shape"
    value {
      shape {
        dim {
          size: 64
        }
      }
    }
  }
  attr {
    key: "shared_name"
    value {
      s: ""
    }
  }
}
node {
  name: "resnet_v1_50/block1/unit_2/bottleneck_v1/conv1/BatchNorm/beta/Assign"
  op: "Assign"
  input: "resnet_v1_50/block1/unit_2/bottleneck_v1/conv1/BatchNorm/beta"
  input: "resnet_v1_50/block1/unit_2/bottleneck_v1/conv1/BatchNorm/beta/Initializer/zeros"
  attr {
    key: "T"
    value {
      type: DT_FLOAT
    }
  }
  attr {
    key: "_class"
    value {
      list {
        s: "loc:@resnet_v1_50/block1/unit_2/bottleneck_v1/conv1/BatchNorm/beta"
      }
    }
  }
  attr {
    key: "use_locking"
    value {
      b: true
    }
  }
  attr {
    key: "validate_shape"
    value {
      b: true
    }
  }
}
node {
  name: "resnet_v1_50/block1/unit_2/bottleneck_v1/conv1/BatchNorm/beta/read"
  op: "Identity"
  input: "resnet_v1_50/block1/unit_2/bottleneck_v1/conv1/BatchNorm/beta"
  attr {
    key: "T"
    value {
      type: DT_FLOAT
    }
  }
  attr {
    key: "_class"
    value {
      list {
        s: "loc:@resnet_v1_50/block1/unit_2/bottleneck_v1/conv1/BatchNorm/beta"
      }
    }
  }
}
node {
  name: "resnet_v1_50/block1/unit_2/bottleneck_v1/conv1/BatchNorm/moving_mean/Initializer/zeros"
  op: "Const"
  attr {
    key: "_class"
    value {
      list {
        s: "loc:@resnet_v1_50/block1/unit_2/bottleneck_v1/conv1/BatchNorm/moving_mean"
      }
    }
  }
  attr {
    key: "dtype"
    value {
      type: DT_FLOAT
    }
  }
  attr {
    key: "value"
    value {
      tensor {
        dtype: DT_FLOAT
        tensor_shape {
          dim {
            size: 64
          }
        }
        float_val: 0.0
      }
    }
  }
}
node {
  name: "resnet_v1_50/block1/unit_2/bottleneck_v1/conv1/BatchNorm/moving_mean"
  op: "VariableV2"
  attr {
    key: "_class"
    value {
      list {
        s: "loc:@resnet_v1_50/block1/unit_2/bottleneck_v1/conv1/BatchNorm/moving_mean"
      }
    }
  }
  attr {
    key: "container"
    value {
      s: ""
    }
  }
  attr {
    key: "dtype"
    value {
      type: DT_FLOAT
    }
  }
  attr {
    key: "shape"
    value {
      shape {
        dim {
          size: 64
        }
      }
    }
  }
  attr {
    key: "shared_name"
    value {
      s: ""
    }
  }
}
node {
  name: "resnet_v1_50/block1/unit_2/bottleneck_v1/conv1/BatchNorm/moving_mean/Assign"
  op: "Assign"
  input: "resnet_v1_50/block1/unit_2/bottleneck_v1/conv1/BatchNorm/moving_mean"
  input: "resnet_v1_50/block1/unit_2/bottleneck_v1/conv1/BatchNorm/moving_mean/Initializer/zeros"
  attr {
    key: "T"
    value {
      type: DT_FLOAT
    }
  }
  attr {
    key: "_class"
    value {
      list {
        s: "loc:@resnet_v1_50/block1/unit_2/bottleneck_v1/conv1/BatchNorm/moving_mean"
      }
    }
  }
  attr {
    key: "use_locking"
    value {
      b: true
    }
  }
  attr {
    key: "validate_shape"
    value {
      b: true
    }
  }
}
node {
  name: "resnet_v1_50/block1/unit_2/bottleneck_v1/conv1/BatchNorm/moving_mean/read"
  op: "Identity"
  input: "resnet_v1_50/block1/unit_2/bottleneck_v1/conv1/BatchNorm/moving_mean"
  attr {
    key: "T"
    value {
      type: DT_FLOAT
    }
  }
  attr {
    key: "_class"
    value {
      list {
        s: "loc:@resnet_v1_50/block1/unit_2/bottleneck_v1/conv1/BatchNorm/moving_mean"
      }
    }
  }
}
node {
  name: "resnet_v1_50/block1/unit_2/bottleneck_v1/conv1/BatchNorm/moving_variance/Initializer/ones"
  op: "Const"
  attr {
    key: "_class"
    value {
      list {
        s: "loc:@resnet_v1_50/block1/unit_2/bottleneck_v1/conv1/BatchNorm/moving_variance"
      }
    }
  }
  attr {
    key: "dtype"
    value {
      type: DT_FLOAT
    }
  }
  attr {
    key: "value"
    value {
      tensor {
        dtype: DT_FLOAT
        tensor_shape {
          dim {
            size: 64
          }
        }
        float_val: 1.0
      }
    }
  }
}
node {
  name: "resnet_v1_50/block1/unit_2/bottleneck_v1/conv1/BatchNorm/moving_variance"
  op: "VariableV2"
  attr {
    key: "_class"
    value {
      list {
        s: "loc:@resnet_v1_50/block1/unit_2/bottleneck_v1/conv1/BatchNorm/moving_variance"
      }
    }
  }
  attr {
    key: "container"
    value {
      s: ""
    }
  }
  attr {
    key: "dtype"
    value {
      type: DT_FLOAT
    }
  }
  attr {
    key: "shape"
    value {
      shape {
        dim {
          size: 64
        }
      }
    }
  }
  attr {
    key: "shared_name"
    value {
      s: ""
    }
  }
}
node {
  name: "resnet_v1_50/block1/unit_2/bottleneck_v1/conv1/BatchNorm/moving_variance/Assign"
  op: "Assign"
  input: "resnet_v1_50/block1/unit_2/bottleneck_v1/conv1/BatchNorm/moving_variance"
  input: "resnet_v1_50/block1/unit_2/bottleneck_v1/conv1/BatchNorm/moving_variance/Initializer/ones"
  attr {
    key: "T"
    value {
      type: DT_FLOAT
    }
  }
  attr {
    key: "_class"
    value {
      list {
        s: "loc:@resnet_v1_50/block1/unit_2/bottleneck_v1/conv1/BatchNorm/moving_variance"
      }
    }
  }
  attr {
    key: "use_locking"
    value {
      b: true
    }
  }
  attr {
    key: "validate_shape"
    value {
      b: true
    }
  }
}
node {
  name: "resnet_v1_50/block1/unit_2/bottleneck_v1/conv1/BatchNorm/moving_variance/read"
  op: "Identity"
  input: "resnet_v1_50/block1/unit_2/bottleneck_v1/conv1/BatchNorm/moving_variance"
  attr {
    key: "T"
    value {
      type: DT_FLOAT
    }
  }
  attr {
    key: "_class"
    value {
      list {
        s: "loc:@resnet_v1_50/block1/unit_2/bottleneck_v1/conv1/BatchNorm/moving_variance"
      }
    }
  }
}
node {
  name: "resnet_v1_50/block1/unit_2/bottleneck_v1/conv1/BatchNorm/FusedBatchNormV3"
  op: "FusedBatchNormV3"
  input: "resnet_v1_50/block1/unit_2/bottleneck_v1/conv1/Conv2D"
  input: "resnet_v1_50/block1/unit_2/bottleneck_v1/conv1/BatchNorm/gamma/read"
  input: "resnet_v1_50/block1/unit_2/bottleneck_v1/conv1/BatchNorm/beta/read"
  input: "resnet_v1_50/block1/unit_2/bottleneck_v1/conv1/BatchNorm/moving_mean/read"
  input: "resnet_v1_50/block1/unit_2/bottleneck_v1/conv1/BatchNorm/moving_variance/read"
  attr {
    key: "T"
    value {
      type: DT_FLOAT
    }
  }
  attr {
    key: "U"
    value {
      type: DT_FLOAT
    }
  }
  attr {
    key: "data_format"
    value {
      s: "NHWC"
    }
  }
  attr {
    key: "epsilon"
    value {
      f: 1.0009999641624745e-05
    }
  }
  attr {
    key: "is_training"
    value {
      b: false
    }
  }
}
node {
  name: "resnet_v1_50/block1/unit_2/bottleneck_v1/conv1/BatchNorm/Const"
  op: "Const"
  attr {
    key: "dtype"
    value {
      type: DT_FLOAT
    }
  }
  attr {
    key: "value"
    value {
      tensor {
        dtype: DT_FLOAT
        tensor_shape {
        }
        float_val: 0.996999979019165
      }
    }
  }
}
node {
  name: "resnet_v1_50/block1/unit_2/bottleneck_v1/conv1/Relu"
  op: "Relu"
  input: "resnet_v1_50/block1/unit_2/bottleneck_v1/conv1/BatchNorm/FusedBatchNormV3"
  attr {
    key: "T"
    value {
      type: DT_FLOAT
    }
  }
}
node {
  name: "resnet_v1_50/block1/unit_2/bottleneck_v1/conv2/weights/Initializer/truncated_normal/shape"
  op: "Const"
  attr {
    key: "_class"
    value {
      list {
        s: "loc:@resnet_v1_50/block1/unit_2/bottleneck_v1/conv2/weights"
      }
    }
  }
  attr {
    key: "dtype"
    value {
      type: DT_INT32
    }
  }
  attr {
    key: "value"
    value {
      tensor {
        dtype: DT_INT32
        tensor_shape {
          dim {
            size: 4
          }
        }
        tensor_content: "\003\000\000\000\003\000\000\000@\000\000\000@\000\000\000"
      }
    }
  }
}
node {
  name: "resnet_v1_50/block1/unit_2/bottleneck_v1/conv2/weights/Initializer/truncated_normal/mean"
  op: "Const"
  attr {
    key: "_class"
    value {
      list {
        s: "loc:@resnet_v1_50/block1/unit_2/bottleneck_v1/conv2/weights"
      }
    }
  }
  attr {
    key: "dtype"
    value {
      type: DT_FLOAT
    }
  }
  attr {
    key: "value"
    value {
      tensor {
        dtype: DT_FLOAT
        tensor_shape {
        }
        float_val: 0.0
      }
    }
  }
}
node {
  name: "resnet_v1_50/block1/unit_2/bottleneck_v1/conv2/weights/Initializer/truncated_normal/stddev"
  op: "Const"
  attr {
    key: "_class"
    value {
      list {
        s: "loc:@resnet_v1_50/block1/unit_2/bottleneck_v1/conv2/weights"
      }
    }
  }
  attr {
    key: "dtype"
    value {
      type: DT_FLOAT
    }
  }
  attr {
    key: "value"
    value {
      tensor {
        dtype: DT_FLOAT
        tensor_shape {
        }
        float_val: 0.06718548387289047
      }
    }
  }
}
node {
  name: "resnet_v1_50/block1/unit_2/bottleneck_v1/conv2/weights/Initializer/truncated_normal/TruncatedNormal"
  op: "TruncatedNormal"
  input: "resnet_v1_50/block1/unit_2/bottleneck_v1/conv2/weights/Initializer/truncated_normal/shape"
  attr {
    key: "T"
    value {
      type: DT_INT32
    }
  }
  attr {
    key: "_class"
    value {
      list {
        s: "loc:@resnet_v1_50/block1/unit_2/bottleneck_v1/conv2/weights"
      }
    }
  }
  attr {
    key: "dtype"
    value {
      type: DT_FLOAT
    }
  }
  attr {
    key: "seed"
    value {
      i: 0
    }
  }
  attr {
    key: "seed2"
    value {
      i: 0
    }
  }
}
node {
  name: "resnet_v1_50/block1/unit_2/bottleneck_v1/conv2/weights/Initializer/truncated_normal/mul"
  op: "Mul"
  input: "resnet_v1_50/block1/unit_2/bottleneck_v1/conv2/weights/Initializer/truncated_normal/TruncatedNormal"
  input: "resnet_v1_50/block1/unit_2/bottleneck_v1/conv2/weights/Initializer/truncated_normal/stddev"
  attr {
    key: "T"
    value {
      type: DT_FLOAT
    }
  }
  attr {
    key: "_class"
    value {
      list {
        s: "loc:@resnet_v1_50/block1/unit_2/bottleneck_v1/conv2/weights"
      }
    }
  }
}
node {
  name: "resnet_v1_50/block1/unit_2/bottleneck_v1/conv2/weights/Initializer/truncated_normal"
  op: "Add"
  input: "resnet_v1_50/block1/unit_2/bottleneck_v1/conv2/weights/Initializer/truncated_normal/mul"
  input: "resnet_v1_50/block1/unit_2/bottleneck_v1/conv2/weights/Initializer/truncated_normal/mean"
  attr {
    key: "T"
    value {
      type: DT_FLOAT
    }
  }
  attr {
    key: "_class"
    value {
      list {
        s: "loc:@resnet_v1_50/block1/unit_2/bottleneck_v1/conv2/weights"
      }
    }
  }
}
node {
  name: "resnet_v1_50/block1/unit_2/bottleneck_v1/conv2/weights"
  op: "VariableV2"
  attr {
    key: "_class"
    value {
      list {
        s: "loc:@resnet_v1_50/block1/unit_2/bottleneck_v1/conv2/weights"
      }
    }
  }
  attr {
    key: "container"
    value {
      s: ""
    }
  }
  attr {
    key: "dtype"
    value {
      type: DT_FLOAT
    }
  }
  attr {
    key: "shape"
    value {
      shape {
        dim {
          size: 3
        }
        dim {
          size: 3
        }
        dim {
          size: 64
        }
        dim {
          size: 64
        }
      }
    }
  }
  attr {
    key: "shared_name"
    value {
      s: ""
    }
  }
}
node {
  name: "resnet_v1_50/block1/unit_2/bottleneck_v1/conv2/weights/Assign"
  op: "Assign"
  input: "resnet_v1_50/block1/unit_2/bottleneck_v1/conv2/weights"
  input: "resnet_v1_50/block1/unit_2/bottleneck_v1/conv2/weights/Initializer/truncated_normal"
  attr {
    key: "T"
    value {
      type: DT_FLOAT
    }
  }
  attr {
    key: "_class"
    value {
      list {
        s: "loc:@resnet_v1_50/block1/unit_2/bottleneck_v1/conv2/weights"
      }
    }
  }
  attr {
    key: "use_locking"
    value {
      b: true
    }
  }
  attr {
    key: "validate_shape"
    value {
      b: true
    }
  }
}
node {
  name: "resnet_v1_50/block1/unit_2/bottleneck_v1/conv2/weights/read"
  op: "Identity"
  input: "resnet_v1_50/block1/unit_2/bottleneck_v1/conv2/weights"
  attr {
    key: "T"
    value {
      type: DT_FLOAT
    }
  }
  attr {
    key: "_class"
    value {
      list {
        s: "loc:@resnet_v1_50/block1/unit_2/bottleneck_v1/conv2/weights"
      }
    }
  }
}
node {
  name: "resnet_v1_50/block1/unit_2/bottleneck_v1/conv2/kernel/Regularizer/l2_regularizer/scale"
  op: "Const"
  attr {
    key: "dtype"
    value {
      type: DT_FLOAT
    }
  }
  attr {
    key: "value"
    value {
      tensor {
        dtype: DT_FLOAT
        tensor_shape {
        }
        float_val: 9.999999747378752e-05
      }
    }
  }
}
node {
  name: "resnet_v1_50/block1/unit_2/bottleneck_v1/conv2/kernel/Regularizer/l2_regularizer/L2Loss"
  op: "L2Loss"
  input: "resnet_v1_50/block1/unit_2/bottleneck_v1/conv2/weights/read"
  attr {
    key: "T"
    value {
      type: DT_FLOAT
    }
  }
}
node {
  name: "resnet_v1_50/block1/unit_2/bottleneck_v1/conv2/kernel/Regularizer/l2_regularizer"
  op: "Mul"
  input: "resnet_v1_50/block1/unit_2/bottleneck_v1/conv2/kernel/Regularizer/l2_regularizer/scale"
  input: "resnet_v1_50/block1/unit_2/bottleneck_v1/conv2/kernel/Regularizer/l2_regularizer/L2Loss"
  attr {
    key: "T"
    value {
      type: DT_FLOAT
    }
  }
}
node {
  name: "resnet_v1_50/block1/unit_2/bottleneck_v1/conv2/dilation_rate"
  op: "Const"
  attr {
    key: "dtype"
    value {
      type: DT_INT32
    }
  }
  attr {
    key: "value"
    value {
      tensor {
        dtype: DT_INT32
        tensor_shape {
          dim {
            size: 2
          }
        }
        tensor_content: "\001\000\000\000\001\000\000\000"
      }
    }
  }
}
node {
  name: "resnet_v1_50/block1/unit_2/bottleneck_v1/conv2/Conv2D"
  op: "Conv2D"
  input: "resnet_v1_50/block1/unit_2/bottleneck_v1/conv1/Relu"
  input: "resnet_v1_50/block1/unit_2/bottleneck_v1/conv2/weights/read"
  attr {
    key: "T"
    value {
      type: DT_FLOAT
    }
  }
  attr {
    key: "data_format"
    value {
      s: "NHWC"
    }
  }
  attr {
    key: "dilations"
    value {
      list {
        i: 1
        i: 1
        i: 1
        i: 1
      }
    }
  }
  attr {
    key: "explicit_paddings"
    value {
      list {
      }
    }
  }
  attr {
    key: "padding"
    value {
      s: "SAME"
    }
  }
  attr {
    key: "strides"
    value {
      list {
        i: 1
        i: 1
        i: 1
        i: 1
      }
    }
  }
  attr {
    key: "use_cudnn_on_gpu"
    value {
      b: true
    }
  }
}
node {
  name: "resnet_v1_50/block1/unit_2/bottleneck_v1/conv2/BatchNorm/gamma/Initializer/ones"
  op: "Const"
  attr {
    key: "_class"
    value {
      list {
        s: "loc:@resnet_v1_50/block1/unit_2/bottleneck_v1/conv2/BatchNorm/gamma"
      }
    }
  }
  attr {
    key: "dtype"
    value {
      type: DT_FLOAT
    }
  }
  attr {
    key: "value"
    value {
      tensor {
        dtype: DT_FLOAT
        tensor_shape {
          dim {
            size: 64
          }
        }
        float_val: 1.0
      }
    }
  }
}
node {
  name: "resnet_v1_50/block1/unit_2/bottleneck_v1/conv2/BatchNorm/gamma"
  op: "VariableV2"
  attr {
    key: "_class"
    value {
      list {
        s: "loc:@resnet_v1_50/block1/unit_2/bottleneck_v1/conv2/BatchNorm/gamma"
      }
    }
  }
  attr {
    key: "container"
    value {
      s: ""
    }
  }
  attr {
    key: "dtype"
    value {
      type: DT_FLOAT
    }
  }
  attr {
    key: "shape"
    value {
      shape {
        dim {
          size: 64
        }
      }
    }
  }
  attr {
    key: "shared_name"
    value {
      s: ""
    }
  }
}
node {
  name: "resnet_v1_50/block1/unit_2/bottleneck_v1/conv2/BatchNorm/gamma/Assign"
  op: "Assign"
  input: "resnet_v1_50/block1/unit_2/bottleneck_v1/conv2/BatchNorm/gamma"
  input: "resnet_v1_50/block1/unit_2/bottleneck_v1/conv2/BatchNorm/gamma/Initializer/ones"
  attr {
    key: "T"
    value {
      type: DT_FLOAT
    }
  }
  attr {
    key: "_class"
    value {
      list {
        s: "loc:@resnet_v1_50/block1/unit_2/bottleneck_v1/conv2/BatchNorm/gamma"
      }
    }
  }
  attr {
    key: "use_locking"
    value {
      b: true
    }
  }
  attr {
    key: "validate_shape"
    value {
      b: true
    }
  }
}
node {
  name: "resnet_v1_50/block1/unit_2/bottleneck_v1/conv2/BatchNorm/gamma/read"
  op: "Identity"
  input: "resnet_v1_50/block1/unit_2/bottleneck_v1/conv2/BatchNorm/gamma"
  attr {
    key: "T"
    value {
      type: DT_FLOAT
    }
  }
  attr {
    key: "_class"
    value {
      list {
        s: "loc:@resnet_v1_50/block1/unit_2/bottleneck_v1/conv2/BatchNorm/gamma"
      }
    }
  }
}
node {
  name: "resnet_v1_50/block1/unit_2/bottleneck_v1/conv2/BatchNorm/beta/Initializer/zeros"
  op: "Const"
  attr {
    key: "_class"
    value {
      list {
        s: "loc:@resnet_v1_50/block1/unit_2/bottleneck_v1/conv2/BatchNorm/beta"
      }
    }
  }
  attr {
    key: "dtype"
    value {
      type: DT_FLOAT
    }
  }
  attr {
    key: "value"
    value {
      tensor {
        dtype: DT_FLOAT
        tensor_shape {
          dim {
            size: 64
          }
        }
        float_val: 0.0
      }
    }
  }
}
node {
  name: "resnet_v1_50/block1/unit_2/bottleneck_v1/conv2/BatchNorm/beta"
  op: "VariableV2"
  attr {
    key: "_class"
    value {
      list {
        s: "loc:@resnet_v1_50/block1/unit_2/bottleneck_v1/conv2/BatchNorm/beta"
      }
    }
  }
  attr {
    key: "container"
    value {
      s: ""
    }
  }
  attr {
    key: "dtype"
    value {
      type: DT_FLOAT
    }
  }
  attr {
    key: "shape"
    value {
      shape {
        dim {
          size: 64
        }
      }
    }
  }
  attr {
    key: "shared_name"
    value {
      s: ""
    }
  }
}
node {
  name: "resnet_v1_50/block1/unit_2/bottleneck_v1/conv2/BatchNorm/beta/Assign"
  op: "Assign"
  input: "resnet_v1_50/block1/unit_2/bottleneck_v1/conv2/BatchNorm/beta"
  input: "resnet_v1_50/block1/unit_2/bottleneck_v1/conv2/BatchNorm/beta/Initializer/zeros"
  attr {
    key: "T"
    value {
      type: DT_FLOAT
    }
  }
  attr {
    key: "_class"
    value {
      list {
        s: "loc:@resnet_v1_50/block1/unit_2/bottleneck_v1/conv2/BatchNorm/beta"
      }
    }
  }
  attr {
    key: "use_locking"
    value {
      b: true
    }
  }
  attr {
    key: "validate_shape"
    value {
      b: true
    }
  }
}
node {
  name: "resnet_v1_50/block1/unit_2/bottleneck_v1/conv2/BatchNorm/beta/read"
  op: "Identity"
  input: "resnet_v1_50/block1/unit_2/bottleneck_v1/conv2/BatchNorm/beta"
  attr {
    key: "T"
    value {
      type: DT_FLOAT
    }
  }
  attr {
    key: "_class"
    value {
      list {
        s: "loc:@resnet_v1_50/block1/unit_2/bottleneck_v1/conv2/BatchNorm/beta"
      }
    }
  }
}
node {
  name: "resnet_v1_50/block1/unit_2/bottleneck_v1/conv2/BatchNorm/moving_mean/Initializer/zeros"
  op: "Const"
  attr {
    key: "_class"
    value {
      list {
        s: "loc:@resnet_v1_50/block1/unit_2/bottleneck_v1/conv2/BatchNorm/moving_mean"
      }
    }
  }
  attr {
    key: "dtype"
    value {
      type: DT_FLOAT
    }
  }
  attr {
    key: "value"
    value {
      tensor {
        dtype: DT_FLOAT
        tensor_shape {
          dim {
            size: 64
          }
        }
        float_val: 0.0
      }
    }
  }
}
node {
  name: "resnet_v1_50/block1/unit_2/bottleneck_v1/conv2/BatchNorm/moving_mean"
  op: "VariableV2"
  attr {
    key: "_class"
    value {
      list {
        s: "loc:@resnet_v1_50/block1/unit_2/bottleneck_v1/conv2/BatchNorm/moving_mean"
      }
    }
  }
  attr {
    key: "container"
    value {
      s: ""
    }
  }
  attr {
    key: "dtype"
    value {
      type: DT_FLOAT
    }
  }
  attr {
    key: "shape"
    value {
      shape {
        dim {
          size: 64
        }
      }
    }
  }
  attr {
    key: "shared_name"
    value {
      s: ""
    }
  }
}
node {
  name: "resnet_v1_50/block1/unit_2/bottleneck_v1/conv2/BatchNorm/moving_mean/Assign"
  op: "Assign"
  input: "resnet_v1_50/block1/unit_2/bottleneck_v1/conv2/BatchNorm/moving_mean"
  input: "resnet_v1_50/block1/unit_2/bottleneck_v1/conv2/BatchNorm/moving_mean/Initializer/zeros"
  attr {
    key: "T"
    value {
      type: DT_FLOAT
    }
  }
  attr {
    key: "_class"
    value {
      list {
        s: "loc:@resnet_v1_50/block1/unit_2/bottleneck_v1/conv2/BatchNorm/moving_mean"
      }
    }
  }
  attr {
    key: "use_locking"
    value {
      b: true
    }
  }
  attr {
    key: "validate_shape"
    value {
      b: true
    }
  }
}
node {
  name: "resnet_v1_50/block1/unit_2/bottleneck_v1/conv2/BatchNorm/moving_mean/read"
  op: "Identity"
  input: "resnet_v1_50/block1/unit_2/bottleneck_v1/conv2/BatchNorm/moving_mean"
  attr {
    key: "T"
    value {
      type: DT_FLOAT
    }
  }
  attr {
    key: "_class"
    value {
      list {
        s: "loc:@resnet_v1_50/block1/unit_2/bottleneck_v1/conv2/BatchNorm/moving_mean"
      }
    }
  }
}
node {
  name: "resnet_v1_50/block1/unit_2/bottleneck_v1/conv2/BatchNorm/moving_variance/Initializer/ones"
  op: "Const"
  attr {
    key: "_class"
    value {
      list {
        s: "loc:@resnet_v1_50/block1/unit_2/bottleneck_v1/conv2/BatchNorm/moving_variance"
      }
    }
  }
  attr {
    key: "dtype"
    value {
      type: DT_FLOAT
    }
  }
  attr {
    key: "value"
    value {
      tensor {
        dtype: DT_FLOAT
        tensor_shape {
          dim {
            size: 64
          }
        }
        float_val: 1.0
      }
    }
  }
}
node {
  name: "resnet_v1_50/block1/unit_2/bottleneck_v1/conv2/BatchNorm/moving_variance"
  op: "VariableV2"
  attr {
    key: "_class"
    value {
      list {
        s: "loc:@resnet_v1_50/block1/unit_2/bottleneck_v1/conv2/BatchNorm/moving_variance"
      }
    }
  }
  attr {
    key: "container"
    value {
      s: ""
    }
  }
  attr {
    key: "dtype"
    value {
      type: DT_FLOAT
    }
  }
  attr {
    key: "shape"
    value {
      shape {
        dim {
          size: 64
        }
      }
    }
  }
  attr {
    key: "shared_name"
    value {
      s: ""
    }
  }
}
node {
  name: "resnet_v1_50/block1/unit_2/bottleneck_v1/conv2/BatchNorm/moving_variance/Assign"
  op: "Assign"
  input: "resnet_v1_50/block1/unit_2/bottleneck_v1/conv2/BatchNorm/moving_variance"
  input: "resnet_v1_50/block1/unit_2/bottleneck_v1/conv2/BatchNorm/moving_variance/Initializer/ones"
  attr {
    key: "T"
    value {
      type: DT_FLOAT
    }
  }
  attr {
    key: "_class"
    value {
      list {
        s: "loc:@resnet_v1_50/block1/unit_2/bottleneck_v1/conv2/BatchNorm/moving_variance"
      }
    }
  }
  attr {
    key: "use_locking"
    value {
      b: true
    }
  }
  attr {
    key: "validate_shape"
    value {
      b: true
    }
  }
}
node {
  name: "resnet_v1_50/block1/unit_2/bottleneck_v1/conv2/BatchNorm/moving_variance/read"
  op: "Identity"
  input: "resnet_v1_50/block1/unit_2/bottleneck_v1/conv2/BatchNorm/moving_variance"
  attr {
    key: "T"
    value {
      type: DT_FLOAT
    }
  }
  attr {
    key: "_class"
    value {
      list {
        s: "loc:@resnet_v1_50/block1/unit_2/bottleneck_v1/conv2/BatchNorm/moving_variance"
      }
    }
  }
}
node {
  name: "resnet_v1_50/block1/unit_2/bottleneck_v1/conv2/BatchNorm/FusedBatchNormV3"
  op: "FusedBatchNormV3"
  input: "resnet_v1_50/block1/unit_2/bottleneck_v1/conv2/Conv2D"
  input: "resnet_v1_50/block1/unit_2/bottleneck_v1/conv2/BatchNorm/gamma/read"
  input: "resnet_v1_50/block1/unit_2/bottleneck_v1/conv2/BatchNorm/beta/read"
  input: "resnet_v1_50/block1/unit_2/bottleneck_v1/conv2/BatchNorm/moving_mean/read"
  input: "resnet_v1_50/block1/unit_2/bottleneck_v1/conv2/BatchNorm/moving_variance/read"
  attr {
    key: "T"
    value {
      type: DT_FLOAT
    }
  }
  attr {
    key: "U"
    value {
      type: DT_FLOAT
    }
  }
  attr {
    key: "data_format"
    value {
      s: "NHWC"
    }
  }
  attr {
    key: "epsilon"
    value {
      f: 1.0009999641624745e-05
    }
  }
  attr {
    key: "is_training"
    value {
      b: false
    }
  }
}
node {
  name: "resnet_v1_50/block1/unit_2/bottleneck_v1/conv2/BatchNorm/Const"
  op: "Const"
  attr {
    key: "dtype"
    value {
      type: DT_FLOAT
    }
  }
  attr {
    key: "value"
    value {
      tensor {
        dtype: DT_FLOAT
        tensor_shape {
        }
        float_val: 0.996999979019165
      }
    }
  }
}
node {
  name: "resnet_v1_50/block1/unit_2/bottleneck_v1/conv2/Relu"
  op: "Relu"
  input: "resnet_v1_50/block1/unit_2/bottleneck_v1/conv2/BatchNorm/FusedBatchNormV3"
  attr {
    key: "T"
    value {
      type: DT_FLOAT
    }
  }
}
node {
  name: "resnet_v1_50/block1/unit_2/bottleneck_v1/conv3/weights/Initializer/truncated_normal/shape"
  op: "Const"
  attr {
    key: "_class"
    value {
      list {
        s: "loc:@resnet_v1_50/block1/unit_2/bottleneck_v1/conv3/weights"
      }
    }
  }
  attr {
    key: "dtype"
    value {
      type: DT_INT32
    }
  }
  attr {
    key: "value"
    value {
      tensor {
        dtype: DT_INT32
        tensor_shape {
          dim {
            size: 4
          }
        }
        tensor_content: "\001\000\000\000\001\000\000\000@\000\000\000\000\001\000\000"
      }
    }
  }
}
node {
  name: "resnet_v1_50/block1/unit_2/bottleneck_v1/conv3/weights/Initializer/truncated_normal/mean"
  op: "Const"
  attr {
    key: "_class"
    value {
      list {
        s: "loc:@resnet_v1_50/block1/unit_2/bottleneck_v1/conv3/weights"
      }
    }
  }
  attr {
    key: "dtype"
    value {
      type: DT_FLOAT
    }
  }
  attr {
    key: "value"
    value {
      tensor {
        dtype: DT_FLOAT
        tensor_shape {
        }
        float_val: 0.0
      }
    }
  }
}
node {
  name: "resnet_v1_50/block1/unit_2/bottleneck_v1/conv3/weights/Initializer/truncated_normal/stddev"
  op: "Const"
  attr {
    key: "_class"
    value {
      list {
        s: "loc:@resnet_v1_50/block1/unit_2/bottleneck_v1/conv3/weights"
      }
    }
  }
  attr {
    key: "dtype"
    value {
      type: DT_FLOAT
    }
  }
  attr {
    key: "value"
    value {
      tensor {
        dtype: DT_FLOAT
        tensor_shape {
        }
        float_val: 0.20155644416809082
      }
    }
  }
}
node {
  name: "resnet_v1_50/block1/unit_2/bottleneck_v1/conv3/weights/Initializer/truncated_normal/TruncatedNormal"
  op: "TruncatedNormal"
  input: "resnet_v1_50/block1/unit_2/bottleneck_v1/conv3/weights/Initializer/truncated_normal/shape"
  attr {
    key: "T"
    value {
      type: DT_INT32
    }
  }
  attr {
    key: "_class"
    value {
      list {
        s: "loc:@resnet_v1_50/block1/unit_2/bottleneck_v1/conv3/weights"
      }
    }
  }
  attr {
    key: "dtype"
    value {
      type: DT_FLOAT
    }
  }
  attr {
    key: "seed"
    value {
      i: 0
    }
  }
  attr {
    key: "seed2"
    value {
      i: 0
    }
  }
}
node {
  name: "resnet_v1_50/block1/unit_2/bottleneck_v1/conv3/weights/Initializer/truncated_normal/mul"
  op: "Mul"
  input: "resnet_v1_50/block1/unit_2/bottleneck_v1/conv3/weights/Initializer/truncated_normal/TruncatedNormal"
  input: "resnet_v1_50/block1/unit_2/bottleneck_v1/conv3/weights/Initializer/truncated_normal/stddev"
  attr {
    key: "T"
    value {
      type: DT_FLOAT
    }
  }
  attr {
    key: "_class"
    value {
      list {
        s: "loc:@resnet_v1_50/block1/unit_2/bottleneck_v1/conv3/weights"
      }
    }
  }
}
node {
  name: "resnet_v1_50/block1/unit_2/bottleneck_v1/conv3/weights/Initializer/truncated_normal"
  op: "Add"
  input: "resnet_v1_50/block1/unit_2/bottleneck_v1/conv3/weights/Initializer/truncated_normal/mul"
  input: "resnet_v1_50/block1/unit_2/bottleneck_v1/conv3/weights/Initializer/truncated_normal/mean"
  attr {
    key: "T"
    value {
      type: DT_FLOAT
    }
  }
  attr {
    key: "_class"
    value {
      list {
        s: "loc:@resnet_v1_50/block1/unit_2/bottleneck_v1/conv3/weights"
      }
    }
  }
}
node {
  name: "resnet_v1_50/block1/unit_2/bottleneck_v1/conv3/weights"
  op: "VariableV2"
  attr {
    key: "_class"
    value {
      list {
        s: "loc:@resnet_v1_50/block1/unit_2/bottleneck_v1/conv3/weights"
      }
    }
  }
  attr {
    key: "container"
    value {
      s: ""
    }
  }
  attr {
    key: "dtype"
    value {
      type: DT_FLOAT
    }
  }
  attr {
    key: "shape"
    value {
      shape {
        dim {
          size: 1
        }
        dim {
          size: 1
        }
        dim {
          size: 64
        }
        dim {
          size: 256
        }
      }
    }
  }
  attr {
    key: "shared_name"
    value {
      s: ""
    }
  }
}
node {
  name: "resnet_v1_50/block1/unit_2/bottleneck_v1/conv3/weights/Assign"
  op: "Assign"
  input: "resnet_v1_50/block1/unit_2/bottleneck_v1/conv3/weights"
  input: "resnet_v1_50/block1/unit_2/bottleneck_v1/conv3/weights/Initializer/truncated_normal"
  attr {
    key: "T"
    value {
      type: DT_FLOAT
    }
  }
  attr {
    key: "_class"
    value {
      list {
        s: "loc:@resnet_v1_50/block1/unit_2/bottleneck_v1/conv3/weights"
      }
    }
  }
  attr {
    key: "use_locking"
    value {
      b: true
    }
  }
  attr {
    key: "validate_shape"
    value {
      b: true
    }
  }
}
node {
  name: "resnet_v1_50/block1/unit_2/bottleneck_v1/conv3/weights/read"
  op: "Identity"
  input: "resnet_v1_50/block1/unit_2/bottleneck_v1/conv3/weights"
  attr {
    key: "T"
    value {
      type: DT_FLOAT
    }
  }
  attr {
    key: "_class"
    value {
      list {
        s: "loc:@resnet_v1_50/block1/unit_2/bottleneck_v1/conv3/weights"
      }
    }
  }
}
node {
  name: "resnet_v1_50/block1/unit_2/bottleneck_v1/conv3/kernel/Regularizer/l2_regularizer/scale"
  op: "Const"
  attr {
    key: "dtype"
    value {
      type: DT_FLOAT
    }
  }
  attr {
    key: "value"
    value {
      tensor {
        dtype: DT_FLOAT
        tensor_shape {
        }
        float_val: 9.999999747378752e-05
      }
    }
  }
}
node {
  name: "resnet_v1_50/block1/unit_2/bottleneck_v1/conv3/kernel/Regularizer/l2_regularizer/L2Loss"
  op: "L2Loss"
  input: "resnet_v1_50/block1/unit_2/bottleneck_v1/conv3/weights/read"
  attr {
    key: "T"
    value {
      type: DT_FLOAT
    }
  }
}
node {
  name: "resnet_v1_50/block1/unit_2/bottleneck_v1/conv3/kernel/Regularizer/l2_regularizer"
  op: "Mul"
  input: "resnet_v1_50/block1/unit_2/bottleneck_v1/conv3/kernel/Regularizer/l2_regularizer/scale"
  input: "resnet_v1_50/block1/unit_2/bottleneck_v1/conv3/kernel/Regularizer/l2_regularizer/L2Loss"
  attr {
    key: "T"
    value {
      type: DT_FLOAT
    }
  }
}
node {
  name: "resnet_v1_50/block1/unit_2/bottleneck_v1/conv3/dilation_rate"
  op: "Const"
  attr {
    key: "dtype"
    value {
      type: DT_INT32
    }
  }
  attr {
    key: "value"
    value {
      tensor {
        dtype: DT_INT32
        tensor_shape {
          dim {
            size: 2
          }
        }
        tensor_content: "\001\000\000\000\001\000\000\000"
      }
    }
  }
}
node {
  name: "resnet_v1_50/block1/unit_2/bottleneck_v1/conv3/Conv2D"
  op: "Conv2D"
  input: "resnet_v1_50/block1/unit_2/bottleneck_v1/conv2/Relu"
  input: "resnet_v1_50/block1/unit_2/bottleneck_v1/conv3/weights/read"
  attr {
    key: "T"
    value {
      type: DT_FLOAT
    }
  }
  attr {
    key: "data_format"
    value {
      s: "NHWC"
    }
  }
  attr {
    key: "dilations"
    value {
      list {
        i: 1
        i: 1
        i: 1
        i: 1
      }
    }
  }
  attr {
    key: "explicit_paddings"
    value {
      list {
      }
    }
  }
  attr {
    key: "padding"
    value {
      s: "SAME"
    }
  }
  attr {
    key: "strides"
    value {
      list {
        i: 1
        i: 1
        i: 1
        i: 1
      }
    }
  }
  attr {
    key: "use_cudnn_on_gpu"
    value {
      b: true
    }
  }
}
node {
  name: "resnet_v1_50/block1/unit_2/bottleneck_v1/conv3/BatchNorm/gamma/Initializer/ones"
  op: "Const"
  attr {
    key: "_class"
    value {
      list {
        s: "loc:@resnet_v1_50/block1/unit_2/bottleneck_v1/conv3/BatchNorm/gamma"
      }
    }
  }
  attr {
    key: "dtype"
    value {
      type: DT_FLOAT
    }
  }
  attr {
    key: "value"
    value {
      tensor {
        dtype: DT_FLOAT
        tensor_shape {
          dim {
            size: 256
          }
        }
        float_val: 1.0
      }
    }
  }
}
node {
  name: "resnet_v1_50/block1/unit_2/bottleneck_v1/conv3/BatchNorm/gamma"
  op: "VariableV2"
  attr {
    key: "_class"
    value {
      list {
        s: "loc:@resnet_v1_50/block1/unit_2/bottleneck_v1/conv3/BatchNorm/gamma"
      }
    }
  }
  attr {
    key: "container"
    value {
      s: ""
    }
  }
  attr {
    key: "dtype"
    value {
      type: DT_FLOAT
    }
  }
  attr {
    key: "shape"
    value {
      shape {
        dim {
          size: 256
        }
      }
    }
  }
  attr {
    key: "shared_name"
    value {
      s: ""
    }
  }
}
node {
  name: "resnet_v1_50/block1/unit_2/bottleneck_v1/conv3/BatchNorm/gamma/Assign"
  op: "Assign"
  input: "resnet_v1_50/block1/unit_2/bottleneck_v1/conv3/BatchNorm/gamma"
  input: "resnet_v1_50/block1/unit_2/bottleneck_v1/conv3/BatchNorm/gamma/Initializer/ones"
  attr {
    key: "T"
    value {
      type: DT_FLOAT
    }
  }
  attr {
    key: "_class"
    value {
      list {
        s: "loc:@resnet_v1_50/block1/unit_2/bottleneck_v1/conv3/BatchNorm/gamma"
      }
    }
  }
  attr {
    key: "use_locking"
    value {
      b: true
    }
  }
  attr {
    key: "validate_shape"
    value {
      b: true
    }
  }
}
node {
  name: "resnet_v1_50/block1/unit_2/bottleneck_v1/conv3/BatchNorm/gamma/read"
  op: "Identity"
  input: "resnet_v1_50/block1/unit_2/bottleneck_v1/conv3/BatchNorm/gamma"
  attr {
    key: "T"
    value {
      type: DT_FLOAT
    }
  }
  attr {
    key: "_class"
    value {
      list {
        s: "loc:@resnet_v1_50/block1/unit_2/bottleneck_v1/conv3/BatchNorm/gamma"
      }
    }
  }
}
node {
  name: "resnet_v1_50/block1/unit_2/bottleneck_v1/conv3/BatchNorm/beta/Initializer/zeros"
  op: "Const"
  attr {
    key: "_class"
    value {
      list {
        s: "loc:@resnet_v1_50/block1/unit_2/bottleneck_v1/conv3/BatchNorm/beta"
      }
    }
  }
  attr {
    key: "dtype"
    value {
      type: DT_FLOAT
    }
  }
  attr {
    key: "value"
    value {
      tensor {
        dtype: DT_FLOAT
        tensor_shape {
          dim {
            size: 256
          }
        }
        float_val: 0.0
      }
    }
  }
}
node {
  name: "resnet_v1_50/block1/unit_2/bottleneck_v1/conv3/BatchNorm/beta"
  op: "VariableV2"
  attr {
    key: "_class"
    value {
      list {
        s: "loc:@resnet_v1_50/block1/unit_2/bottleneck_v1/conv3/BatchNorm/beta"
      }
    }
  }
  attr {
    key: "container"
    value {
      s: ""
    }
  }
  attr {
    key: "dtype"
    value {
      type: DT_FLOAT
    }
  }
  attr {
    key: "shape"
    value {
      shape {
        dim {
          size: 256
        }
      }
    }
  }
  attr {
    key: "shared_name"
    value {
      s: ""
    }
  }
}
node {
  name: "resnet_v1_50/block1/unit_2/bottleneck_v1/conv3/BatchNorm/beta/Assign"
  op: "Assign"
  input: "resnet_v1_50/block1/unit_2/bottleneck_v1/conv3/BatchNorm/beta"
  input: "resnet_v1_50/block1/unit_2/bottleneck_v1/conv3/BatchNorm/beta/Initializer/zeros"
  attr {
    key: "T"
    value {
      type: DT_FLOAT
    }
  }
  attr {
    key: "_class"
    value {
      list {
        s: "loc:@resnet_v1_50/block1/unit_2/bottleneck_v1/conv3/BatchNorm/beta"
      }
    }
  }
  attr {
    key: "use_locking"
    value {
      b: true
    }
  }
  attr {
    key: "validate_shape"
    value {
      b: true
    }
  }
}
node {
  name: "resnet_v1_50/block1/unit_2/bottleneck_v1/conv3/BatchNorm/beta/read"
  op: "Identity"
  input: "resnet_v1_50/block1/unit_2/bottleneck_v1/conv3/BatchNorm/beta"
  attr {
    key: "T"
    value {
      type: DT_FLOAT
    }
  }
  attr {
    key: "_class"
    value {
      list {
        s: "loc:@resnet_v1_50/block1/unit_2/bottleneck_v1/conv3/BatchNorm/beta"
      }
    }
  }
}
node {
  name: "resnet_v1_50/block1/unit_2/bottleneck_v1/conv3/BatchNorm/moving_mean/Initializer/zeros"
  op: "Const"
  attr {
    key: "_class"
    value {
      list {
        s: "loc:@resnet_v1_50/block1/unit_2/bottleneck_v1/conv3/BatchNorm/moving_mean"
      }
    }
  }
  attr {
    key: "dtype"
    value {
      type: DT_FLOAT
    }
  }
  attr {
    key: "value"
    value {
      tensor {
        dtype: DT_FLOAT
        tensor_shape {
          dim {
            size: 256
          }
        }
        float_val: 0.0
      }
    }
  }
}
node {
  name: "resnet_v1_50/block1/unit_2/bottleneck_v1/conv3/BatchNorm/moving_mean"
  op: "VariableV2"
  attr {
    key: "_class"
    value {
      list {
        s: "loc:@resnet_v1_50/block1/unit_2/bottleneck_v1/conv3/BatchNorm/moving_mean"
      }
    }
  }
  attr {
    key: "container"
    value {
      s: ""
    }
  }
  attr {
    key: "dtype"
    value {
      type: DT_FLOAT
    }
  }
  attr {
    key: "shape"
    value {
      shape {
        dim {
          size: 256
        }
      }
    }
  }
  attr {
    key: "shared_name"
    value {
      s: ""
    }
  }
}
node {
  name: "resnet_v1_50/block1/unit_2/bottleneck_v1/conv3/BatchNorm/moving_mean/Assign"
  op: "Assign"
  input: "resnet_v1_50/block1/unit_2/bottleneck_v1/conv3/BatchNorm/moving_mean"
  input: "resnet_v1_50/block1/unit_2/bottleneck_v1/conv3/BatchNorm/moving_mean/Initializer/zeros"
  attr {
    key: "T"
    value {
      type: DT_FLOAT
    }
  }
  attr {
    key: "_class"
    value {
      list {
        s: "loc:@resnet_v1_50/block1/unit_2/bottleneck_v1/conv3/BatchNorm/moving_mean"
      }
    }
  }
  attr {
    key: "use_locking"
    value {
      b: true
    }
  }
  attr {
    key: "validate_shape"
    value {
      b: true
    }
  }
}
node {
  name: "resnet_v1_50/block1/unit_2/bottleneck_v1/conv3/BatchNorm/moving_mean/read"
  op: "Identity"
  input: "resnet_v1_50/block1/unit_2/bottleneck_v1/conv3/BatchNorm/moving_mean"
  attr {
    key: "T"
    value {
      type: DT_FLOAT
    }
  }
  attr {
    key: "_class"
    value {
      list {
        s: "loc:@resnet_v1_50/block1/unit_2/bottleneck_v1/conv3/BatchNorm/moving_mean"
      }
    }
  }
}
node {
  name: "resnet_v1_50/block1/unit_2/bottleneck_v1/conv3/BatchNorm/moving_variance/Initializer/ones"
  op: "Const"
  attr {
    key: "_class"
    value {
      list {
        s: "loc:@resnet_v1_50/block1/unit_2/bottleneck_v1/conv3/BatchNorm/moving_variance"
      }
    }
  }
  attr {
    key: "dtype"
    value {
      type: DT_FLOAT
    }
  }
  attr {
    key: "value"
    value {
      tensor {
        dtype: DT_FLOAT
        tensor_shape {
          dim {
            size: 256
          }
        }
        float_val: 1.0
      }
    }
  }
}
node {
  name: "resnet_v1_50/block1/unit_2/bottleneck_v1/conv3/BatchNorm/moving_variance"
  op: "VariableV2"
  attr {
    key: "_class"
    value {
      list {
        s: "loc:@resnet_v1_50/block1/unit_2/bottleneck_v1/conv3/BatchNorm/moving_variance"
      }
    }
  }
  attr {
    key: "container"
    value {
      s: ""
    }
  }
  attr {
    key: "dtype"
    value {
      type: DT_FLOAT
    }
  }
  attr {
    key: "shape"
    value {
      shape {
        dim {
          size: 256
        }
      }
    }
  }
  attr {
    key: "shared_name"
    value {
      s: ""
    }
  }
}
node {
  name: "resnet_v1_50/block1/unit_2/bottleneck_v1/conv3/BatchNorm/moving_variance/Assign"
  op: "Assign"
  input: "resnet_v1_50/block1/unit_2/bottleneck_v1/conv3/BatchNorm/moving_variance"
  input: "resnet_v1_50/block1/unit_2/bottleneck_v1/conv3/BatchNorm/moving_variance/Initializer/ones"
  attr {
    key: "T"
    value {
      type: DT_FLOAT
    }
  }
  attr {
    key: "_class"
    value {
      list {
        s: "loc:@resnet_v1_50/block1/unit_2/bottleneck_v1/conv3/BatchNorm/moving_variance"
      }
    }
  }
  attr {
    key: "use_locking"
    value {
      b: true
    }
  }
  attr {
    key: "validate_shape"
    value {
      b: true
    }
  }
}
node {
  name: "resnet_v1_50/block1/unit_2/bottleneck_v1/conv3/BatchNorm/moving_variance/read"
  op: "Identity"
  input: "resnet_v1_50/block1/unit_2/bottleneck_v1/conv3/BatchNorm/moving_variance"
  attr {
    key: "T"
    value {
      type: DT_FLOAT
    }
  }
  attr {
    key: "_class"
    value {
      list {
        s: "loc:@resnet_v1_50/block1/unit_2/bottleneck_v1/conv3/BatchNorm/moving_variance"
      }
    }
  }
}
node {
  name: "resnet_v1_50/block1/unit_2/bottleneck_v1/conv3/BatchNorm/FusedBatchNormV3"
  op: "FusedBatchNormV3"
  input: "resnet_v1_50/block1/unit_2/bottleneck_v1/conv3/Conv2D"
  input: "resnet_v1_50/block1/unit_2/bottleneck_v1/conv3/BatchNorm/gamma/read"
  input: "resnet_v1_50/block1/unit_2/bottleneck_v1/conv3/BatchNorm/beta/read"
  input: "resnet_v1_50/block1/unit_2/bottleneck_v1/conv3/BatchNorm/moving_mean/read"
  input: "resnet_v1_50/block1/unit_2/bottleneck_v1/conv3/BatchNorm/moving_variance/read"
  attr {
    key: "T"
    value {
      type: DT_FLOAT
    }
  }
  attr {
    key: "U"
    value {
      type: DT_FLOAT
    }
  }
  attr {
    key: "data_format"
    value {
      s: "NHWC"
    }
  }
  attr {
    key: "epsilon"
    value {
      f: 1.0009999641624745e-05
    }
  }
  attr {
    key: "is_training"
    value {
      b: false
    }
  }
}
node {
  name: "resnet_v1_50/block1/unit_2/bottleneck_v1/conv3/BatchNorm/Const"
  op: "Const"
  attr {
    key: "dtype"
    value {
      type: DT_FLOAT
    }
  }
  attr {
    key: "value"
    value {
      tensor {
        dtype: DT_FLOAT
        tensor_shape {
        }
        float_val: 0.996999979019165
      }
    }
  }
}
node {
  name: "resnet_v1_50/block1/unit_2/bottleneck_v1/add"
  op: "AddV2"
  input: "resnet_v1_50/block1/unit_1/bottleneck_v1/Relu"
  input: "resnet_v1_50/block1/unit_2/bottleneck_v1/conv3/BatchNorm/FusedBatchNormV3"
  attr {
    key: "T"
    value {
      type: DT_FLOAT
    }
  }
}
node {
  name: "resnet_v1_50/block1/unit_2/bottleneck_v1/Relu"
  op: "Relu"
  input: "resnet_v1_50/block1/unit_2/bottleneck_v1/add"
  attr {
    key: "T"
    value {
      type: DT_FLOAT
    }
  }
}
node {
  name: "resnet_v1_50/block1/unit_3/bottleneck_v1/shortcut/MaxPool"
  op: "MaxPool"
  input: "resnet_v1_50/block1/unit_2/bottleneck_v1/Relu"
  attr {
    key: "T"
    value {
      type: DT_FLOAT
    }
  }
  attr {
    key: "data_format"
    value {
      s: "NHWC"
    }
  }
  attr {
    key: "ksize"
    value {
      list {
        i: 1
        i: 1
        i: 1
        i: 1
      }
    }
  }
  attr {
    key: "padding"
    value {
      s: "SAME"
    }
  }
  attr {
    key: "strides"
    value {
      list {
        i: 1
        i: 2
        i: 2
        i: 1
      }
    }
  }
}
node {
  name: "resnet_v1_50/block1/unit_3/bottleneck_v1/conv1/weights/Initializer/truncated_normal/shape"
  op: "Const"
  attr {
    key: "_class"
    value {
      list {
        s: "loc:@resnet_v1_50/block1/unit_3/bottleneck_v1/conv1/weights"
      }
    }
  }
  attr {
    key: "dtype"
    value {
      type: DT_INT32
    }
  }
  attr {
    key: "value"
    value {
      tensor {
        dtype: DT_INT32
        tensor_shape {
          dim {
            size: 4
          }
        }
        tensor_content: "\001\000\000\000\001\000\000\000\000\001\000\000@\000\000\000"
      }
    }
  }
}
node {
  name: "resnet_v1_50/block1/unit_3/bottleneck_v1/conv1/weights/Initializer/truncated_normal/mean"
  op: "Const"
  attr {
    key: "_class"
    value {
      list {
        s: "loc:@resnet_v1_50/block1/unit_3/bottleneck_v1/conv1/weights"
      }
    }
  }
  attr {
    key: "dtype"
    value {
      type: DT_FLOAT
    }
  }
  attr {
    key: "value"
    value {
      tensor {
        dtype: DT_FLOAT
        tensor_shape {
        }
        float_val: 0.0
      }
    }
  }
}
node {
  name: "resnet_v1_50/block1/unit_3/bottleneck_v1/conv1/weights/Initializer/truncated_normal/stddev"
  op: "Const"
  attr {
    key: "_class"
    value {
      list {
        s: "loc:@resnet_v1_50/block1/unit_3/bottleneck_v1/conv1/weights"
      }
    }
  }
  attr {
    key: "dtype"
    value {
      type: DT_FLOAT
    }
  }
  attr {
    key: "value"
    value {
      tensor {
        dtype: DT_FLOAT
        tensor_shape {
        }
        float_val: 0.10077822208404541
      }
    }
  }
}
node {
  name: "resnet_v1_50/block1/unit_3/bottleneck_v1/conv1/weights/Initializer/truncated_normal/TruncatedNormal"
  op: "TruncatedNormal"
  input: "resnet_v1_50/block1/unit_3/bottleneck_v1/conv1/weights/Initializer/truncated_normal/shape"
  attr {
    key: "T"
    value {
      type: DT_INT32
    }
  }
  attr {
    key: "_class"
    value {
      list {
        s: "loc:@resnet_v1_50/block1/unit_3/bottleneck_v1/conv1/weights"
      }
    }
  }
  attr {
    key: "dtype"
    value {
      type: DT_FLOAT
    }
  }
  attr {
    key: "seed"
    value {
      i: 0
    }
  }
  attr {
    key: "seed2"
    value {
      i: 0
    }
  }
}
node {
  name: "resnet_v1_50/block1/unit_3/bottleneck_v1/conv1/weights/Initializer/truncated_normal/mul"
  op: "Mul"
  input: "resnet_v1_50/block1/unit_3/bottleneck_v1/conv1/weights/Initializer/truncated_normal/TruncatedNormal"
  input: "resnet_v1_50/block1/unit_3/bottleneck_v1/conv1/weights/Initializer/truncated_normal/stddev"
  attr {
    key: "T"
    value {
      type: DT_FLOAT
    }
  }
  attr {
    key: "_class"
    value {
      list {
        s: "loc:@resnet_v1_50/block1/unit_3/bottleneck_v1/conv1/weights"
      }
    }
  }
}
node {
  name: "resnet_v1_50/block1/unit_3/bottleneck_v1/conv1/weights/Initializer/truncated_normal"
  op: "Add"
  input: "resnet_v1_50/block1/unit_3/bottleneck_v1/conv1/weights/Initializer/truncated_normal/mul"
  input: "resnet_v1_50/block1/unit_3/bottleneck_v1/conv1/weights/Initializer/truncated_normal/mean"
  attr {
    key: "T"
    value {
      type: DT_FLOAT
    }
  }
  attr {
    key: "_class"
    value {
      list {
        s: "loc:@resnet_v1_50/block1/unit_3/bottleneck_v1/conv1/weights"
      }
    }
  }
}
node {
  name: "resnet_v1_50/block1/unit_3/bottleneck_v1/conv1/weights"
  op: "VariableV2"
  attr {
    key: "_class"
    value {
      list {
        s: "loc:@resnet_v1_50/block1/unit_3/bottleneck_v1/conv1/weights"
      }
    }
  }
  attr {
    key: "container"
    value {
      s: ""
    }
  }
  attr {
    key: "dtype"
    value {
      type: DT_FLOAT
    }
  }
  attr {
    key: "shape"
    value {
      shape {
        dim {
          size: 1
        }
        dim {
          size: 1
        }
        dim {
          size: 256
        }
        dim {
          size: 64
        }
      }
    }
  }
  attr {
    key: "shared_name"
    value {
      s: ""
    }
  }
}
node {
  name: "resnet_v1_50/block1/unit_3/bottleneck_v1/conv1/weights/Assign"
  op: "Assign"
  input: "resnet_v1_50/block1/unit_3/bottleneck_v1/conv1/weights"
  input: "resnet_v1_50/block1/unit_3/bottleneck_v1/conv1/weights/Initializer/truncated_normal"
  attr {
    key: "T"
    value {
      type: DT_FLOAT
    }
  }
  attr {
    key: "_class"
    value {
      list {
        s: "loc:@resnet_v1_50/block1/unit_3/bottleneck_v1/conv1/weights"
      }
    }
  }
  attr {
    key: "use_locking"
    value {
      b: true
    }
  }
  attr {
    key: "validate_shape"
    value {
      b: true
    }
  }
}
node {
  name: "resnet_v1_50/block1/unit_3/bottleneck_v1/conv1/weights/read"
  op: "Identity"
  input: "resnet_v1_50/block1/unit_3/bottleneck_v1/conv1/weights"
  attr {
    key: "T"
    value {
      type: DT_FLOAT
    }
  }
  attr {
    key: "_class"
    value {
      list {
        s: "loc:@resnet_v1_50/block1/unit_3/bottleneck_v1/conv1/weights"
      }
    }
  }
}
node {
  name: "resnet_v1_50/block1/unit_3/bottleneck_v1/conv1/kernel/Regularizer/l2_regularizer/scale"
  op: "Const"
  attr {
    key: "dtype"
    value {
      type: DT_FLOAT
    }
  }
  attr {
    key: "value"
    value {
      tensor {
        dtype: DT_FLOAT
        tensor_shape {
        }
        float_val: 9.999999747378752e-05
      }
    }
  }
}
node {
  name: "resnet_v1_50/block1/unit_3/bottleneck_v1/conv1/kernel/Regularizer/l2_regularizer/L2Loss"
  op: "L2Loss"
  input: "resnet_v1_50/block1/unit_3/bottleneck_v1/conv1/weights/read"
  attr {
    key: "T"
    value {
      type: DT_FLOAT
    }
  }
}
node {
  name: "resnet_v1_50/block1/unit_3/bottleneck_v1/conv1/kernel/Regularizer/l2_regularizer"
  op: "Mul"
  input: "resnet_v1_50/block1/unit_3/bottleneck_v1/conv1/kernel/Regularizer/l2_regularizer/scale"
  input: "resnet_v1_50/block1/unit_3/bottleneck_v1/conv1/kernel/Regularizer/l2_regularizer/L2Loss"
  attr {
    key: "T"
    value {
      type: DT_FLOAT
    }
  }
}
node {
  name: "resnet_v1_50/block1/unit_3/bottleneck_v1/conv1/dilation_rate"
  op: "Const"
  attr {
    key: "dtype"
    value {
      type: DT_INT32
    }
  }
  attr {
    key: "value"
    value {
      tensor {
        dtype: DT_INT32
        tensor_shape {
          dim {
            size: 2
          }
        }
        tensor_content: "\001\000\000\000\001\000\000\000"
      }
    }
  }
}
node {
  name: "resnet_v1_50/block1/unit_3/bottleneck_v1/conv1/Conv2D"
  op: "Conv2D"
  input: "resnet_v1_50/block1/unit_2/bottleneck_v1/Relu"
  input: "resnet_v1_50/block1/unit_3/bottleneck_v1/conv1/weights/read"
  attr {
    key: "T"
    value {
      type: DT_FLOAT
    }
  }
  attr {
    key: "data_format"
    value {
      s: "NHWC"
    }
  }
  attr {
    key: "dilations"
    value {
      list {
        i: 1
        i: 1
        i: 1
        i: 1
      }
    }
  }
  attr {
    key: "explicit_paddings"
    value {
      list {
      }
    }
  }
  attr {
    key: "padding"
    value {
      s: "SAME"
    }
  }
  attr {
    key: "strides"
    value {
      list {
        i: 1
        i: 1
        i: 1
        i: 1
      }
    }
  }
  attr {
    key: "use_cudnn_on_gpu"
    value {
      b: true
    }
  }
}
node {
  name: "resnet_v1_50/block1/unit_3/bottleneck_v1/conv1/BatchNorm/gamma/Initializer/ones"
  op: "Const"
  attr {
    key: "_class"
    value {
      list {
        s: "loc:@resnet_v1_50/block1/unit_3/bottleneck_v1/conv1/BatchNorm/gamma"
      }
    }
  }
  attr {
    key: "dtype"
    value {
      type: DT_FLOAT
    }
  }
  attr {
    key: "value"
    value {
      tensor {
        dtype: DT_FLOAT
        tensor_shape {
          dim {
            size: 64
          }
        }
        float_val: 1.0
      }
    }
  }
}
node {
  name: "resnet_v1_50/block1/unit_3/bottleneck_v1/conv1/BatchNorm/gamma"
  op: "VariableV2"
  attr {
    key: "_class"
    value {
      list {
        s: "loc:@resnet_v1_50/block1/unit_3/bottleneck_v1/conv1/BatchNorm/gamma"
      }
    }
  }
  attr {
    key: "container"
    value {
      s: ""
    }
  }
  attr {
    key: "dtype"
    value {
      type: DT_FLOAT
    }
  }
  attr {
    key: "shape"
    value {
      shape {
        dim {
          size: 64
        }
      }
    }
  }
  attr {
    key: "shared_name"
    value {
      s: ""
    }
  }
}
node {
  name: "resnet_v1_50/block1/unit_3/bottleneck_v1/conv1/BatchNorm/gamma/Assign"
  op: "Assign"
  input: "resnet_v1_50/block1/unit_3/bottleneck_v1/conv1/BatchNorm/gamma"
  input: "resnet_v1_50/block1/unit_3/bottleneck_v1/conv1/BatchNorm/gamma/Initializer/ones"
  attr {
    key: "T"
    value {
      type: DT_FLOAT
    }
  }
  attr {
    key: "_class"
    value {
      list {
        s: "loc:@resnet_v1_50/block1/unit_3/bottleneck_v1/conv1/BatchNorm/gamma"
      }
    }
  }
  attr {
    key: "use_locking"
    value {
      b: true
    }
  }
  attr {
    key: "validate_shape"
    value {
      b: true
    }
  }
}
node {
  name: "resnet_v1_50/block1/unit_3/bottleneck_v1/conv1/BatchNorm/gamma/read"
  op: "Identity"
  input: "resnet_v1_50/block1/unit_3/bottleneck_v1/conv1/BatchNorm/gamma"
  attr {
    key: "T"
    value {
      type: DT_FLOAT
    }
  }
  attr {
    key: "_class"
    value {
      list {
        s: "loc:@resnet_v1_50/block1/unit_3/bottleneck_v1/conv1/BatchNorm/gamma"
      }
    }
  }
}
node {
  name: "resnet_v1_50/block1/unit_3/bottleneck_v1/conv1/BatchNorm/beta/Initializer/zeros"
  op: "Const"
  attr {
    key: "_class"
    value {
      list {
        s: "loc:@resnet_v1_50/block1/unit_3/bottleneck_v1/conv1/BatchNorm/beta"
      }
    }
  }
  attr {
    key: "dtype"
    value {
      type: DT_FLOAT
    }
  }
  attr {
    key: "value"
    value {
      tensor {
        dtype: DT_FLOAT
        tensor_shape {
          dim {
            size: 64
          }
        }
        float_val: 0.0
      }
    }
  }
}
node {
  name: "resnet_v1_50/block1/unit_3/bottleneck_v1/conv1/BatchNorm/beta"
  op: "VariableV2"
  attr {
    key: "_class"
    value {
      list {
        s: "loc:@resnet_v1_50/block1/unit_3/bottleneck_v1/conv1/BatchNorm/beta"
      }
    }
  }
  attr {
    key: "container"
    value {
      s: ""
    }
  }
  attr {
    key: "dtype"
    value {
      type: DT_FLOAT
    }
  }
  attr {
    key: "shape"
    value {
      shape {
        dim {
          size: 64
        }
      }
    }
  }
  attr {
    key: "shared_name"
    value {
      s: ""
    }
  }
}
node {
  name: "resnet_v1_50/block1/unit_3/bottleneck_v1/conv1/BatchNorm/beta/Assign"
  op: "Assign"
  input: "resnet_v1_50/block1/unit_3/bottleneck_v1/conv1/BatchNorm/beta"
  input: "resnet_v1_50/block1/unit_3/bottleneck_v1/conv1/BatchNorm/beta/Initializer/zeros"
  attr {
    key: "T"
    value {
      type: DT_FLOAT
    }
  }
  attr {
    key: "_class"
    value {
      list {
        s: "loc:@resnet_v1_50/block1/unit_3/bottleneck_v1/conv1/BatchNorm/beta"
      }
    }
  }
  attr {
    key: "use_locking"
    value {
      b: true
    }
  }
  attr {
    key: "validate_shape"
    value {
      b: true
    }
  }
}
node {
  name: "resnet_v1_50/block1/unit_3/bottleneck_v1/conv1/BatchNorm/beta/read"
  op: "Identity"
  input: "resnet_v1_50/block1/unit_3/bottleneck_v1/conv1/BatchNorm/beta"
  attr {
    key: "T"
    value {
      type: DT_FLOAT
    }
  }
  attr {
    key: "_class"
    value {
      list {
        s: "loc:@resnet_v1_50/block1/unit_3/bottleneck_v1/conv1/BatchNorm/beta"
      }
    }
  }
}
node {
  name: "resnet_v1_50/block1/unit_3/bottleneck_v1/conv1/BatchNorm/moving_mean/Initializer/zeros"
  op: "Const"
  attr {
    key: "_class"
    value {
      list {
…
  name: "save/Assign_229"
  op: "Assign"
  input: "resnet_v1_50/block4/unit_1/bottleneck_v1/shortcut/BatchNorm/beta"
  input: "save/RestoreV2:229"
  attr {
    key: "T"
    value {
      type: DT_FLOAT
    }
  }
  attr {
    key: "_class"
    value {
      list {
        s: "loc:@resnet_v1_50/block4/unit_1/bottleneck_v1/shortcut/BatchNorm/beta"
      }
    }
  }
  attr {
    key: "use_locking"
    value {
      b: true
    }
  }
  attr {
    key: "validate_shape"
    value {
      b: true
    }
  }
}
node {
  name: "save/Assign_230"
  op: "Assign"
  input: "resnet_v1_50/block4/unit_1/bottleneck_v1/shortcut/BatchNorm/gamma"
  input: "save/RestoreV2:230"
  attr {
    key: "T"
    value {
      type: DT_FLOAT
    }
  }
  attr {
    key: "_class"
    value {
      list {
        s: "loc:@resnet_v1_50/block4/unit_1/bottleneck_v1/shortcut/BatchNorm/gamma"
      }
    }
  }
  attr {
    key: "use_locking"
    value {
      b: true
    }
  }
  attr {
    key: "validate_shape"
    value {
      b: true
    }
  }
}
node {
  name: "save/Assign_231"
  op: "Assign"
  input: "resnet_v1_50/block4/unit_1/bottleneck_v1/shortcut/BatchNorm/moving_mean"
  input: "save/RestoreV2:231"
  attr {
    key: "T"
    value {
      type: DT_FLOAT
    }
  }
  attr {
    key: "_class"
    value {
      list {
        s: "loc:@resnet_v1_50/block4/unit_1/bottleneck_v1/shortcut/BatchNorm/moving_mean"
      }
    }
  }
  attr {
    key: "use_locking"
    value {
      b: true
    }
  }
  attr {
    key: "validate_shape"
    value {
      b: true
    }
  }
}
node {
  name: "save/Assign_232"
  op: "Assign"
  input: "resnet_v1_50/block4/unit_1/bottleneck_v1/shortcut/BatchNorm/moving_variance"
  input: "save/RestoreV2:232"
  attr {
    key: "T"
    value {
      type: DT_FLOAT
    }
  }
  attr {
    key: "_class"
    value {
      list {
        s: "loc:@resnet_v1_50/block4/unit_1/bottleneck_v1/shortcut/BatchNorm/moving_variance"
      }
    }
  }
  attr {
    key: "use_locking"
    value {
      b: true
    }
  }
  attr {
    key: "validate_shape"
    value {
      b: true
    }
  }
}
node {
  name: "save/Assign_233"
  op: "Assign"
  input: "resnet_v1_50/block4/unit_1/bottleneck_v1/shortcut/weights"
  input: "save/RestoreV2:233"
  attr {
    key: "T"
    value {
      type: DT_FLOAT
    }
  }
  attr {
    key: "_class"
    value {
      list {
        s: "loc:@resnet_v1_50/block4/unit_1/bottleneck_v1/shortcut/weights"
      }
    }
  }
  attr {
    key: "use_locking"
    value {
      b: true
    }
  }
  attr {
    key: "validate_shape"
    value {
      b: true
    }
  }
}
node {
  name: "save/Assign_234"
  op: "Assign"
  input: "resnet_v1_50/block4/unit_2/bottleneck_v1/conv1/BatchNorm/beta"
  input: "save/RestoreV2:234"
  attr {
    key: "T"
    value {
      type: DT_FLOAT
    }
  }
  attr {
    key: "_class"
    value {
      list {
        s: "loc:@resnet_v1_50/block4/unit_2/bottleneck_v1/conv1/BatchNorm/beta"
      }
    }
  }
  attr {
    key: "use_locking"
    value {
      b: true
    }
  }
  attr {
    key: "validate_shape"
    value {
      b: true
    }
  }
}
node {
  name: "save/Assign_235"
  op: "Assign"
  input: "resnet_v1_50/block4/unit_2/bottleneck_v1/conv1/BatchNorm/gamma"
  input: "save/RestoreV2:235"
  attr {
    key: "T"
    value {
      type: DT_FLOAT
    }
  }
  attr {
    key: "_class"
    value {
      list {
        s: "loc:@resnet_v1_50/block4/unit_2/bottleneck_v1/conv1/BatchNorm/gamma"
      }
    }
  }
  attr {
    key: "use_locking"
    value {
      b: true
    }
  }
  attr {
    key: "validate_shape"
    value {
      b: true
    }
  }
}
node {
  name: "save/Assign_236"
  op: "Assign"
  input: "resnet_v1_50/block4/unit_2/bottleneck_v1/conv1/BatchNorm/moving_mean"
  input: "save/RestoreV2:236"
  attr {
    key: "T"
    value {
      type: DT_FLOAT
    }
  }
  attr {
    key: "_class"
    value {
      list {
        s: "loc:@resnet_v1_50/block4/unit_2/bottleneck_v1/conv1/BatchNorm/moving_mean"
      }
    }
  }
  attr {
    key: "use_locking"
    value {
      b: true
    }
  }
  attr {
    key: "validate_shape"
    value {
      b: true
    }
  }
}
node {
  name: "save/Assign_237"
  op: "Assign"
  input: "resnet_v1_50/block4/unit_2/bottleneck_v1/conv1/BatchNorm/moving_variance"
  input: "save/RestoreV2:237"
  attr {
    key: "T"
    value {
      type: DT_FLOAT
    }
  }
  attr {
    key: "_class"
    value {
      list {
        s: "loc:@resnet_v1_50/block4/unit_2/bottleneck_v1/conv1/BatchNorm/moving_variance"
      }
    }
  }
  attr {
    key: "use_locking"
    value {
      b: true
    }
  }
  attr {
    key: "validate_shape"
    value {
      b: true
    }
  }
}
node {
  name: "save/Assign_238"
  op: "Assign"
  input: "resnet_v1_50/block4/unit_2/bottleneck_v1/conv1/weights"
  input: "save/RestoreV2:238"
  attr {
    key: "T"
    value {
      type: DT_FLOAT
    }
  }
  attr {
    key: "_class"
    value {
      list {
        s: "loc:@resnet_v1_50/block4/unit_2/bottleneck_v1/conv1/weights"
      }
    }
  }
  attr {
    key: "use_locking"
    value {
      b: true
    }
  }
  attr {
    key: "validate_shape"
    value {
      b: true
    }
  }
}
node {
  name: "save/Assign_239"
  op: "Assign"
  input: "resnet_v1_50/block4/unit_2/bottleneck_v1/conv2/BatchNorm/beta"
  input: "save/RestoreV2:239"
  attr {
    key: "T"
    value {
      type: DT_FLOAT
    }
  }
  attr {
    key: "_class"
    value {
      list {
        s: "loc:@resnet_v1_50/block4/unit_2/bottleneck_v1/conv2/BatchNorm/beta"
      }
    }
  }
  attr {
    key: "use_locking"
    value {
      b: true
    }
  }
  attr {
    key: "validate_shape"
    value {
      b: true
    }
  }
}
node {
  name: "save/Assign_240"
  op: "Assign"
  input: "resnet_v1_50/block4/unit_2/bottleneck_v1/conv2/BatchNorm/gamma"
  input: "save/RestoreV2:240"
  attr {
    key: "T"
    value {
      type: DT_FLOAT
    }
  }
  attr {
    key: "_class"
    value {
      list {
        s: "loc:@resnet_v1_50/block4/unit_2/bottleneck_v1/conv2/BatchNorm/gamma"
      }
    }
  }
  attr {
    key: "use_locking"
    value {
      b: true
    }
  }
  attr {
    key: "validate_shape"
    value {
      b: true
    }
  }
}
node {
  name: "save/Assign_241"
  op: "Assign"
  input: "resnet_v1_50/block4/unit_2/bottleneck_v1/conv2/BatchNorm/moving_mean"
  input: "save/RestoreV2:241"
  attr {
    key: "T"
    value {
      type: DT_FLOAT
    }
  }
  attr {
    key: "_class"
    value {
      list {
        s: "loc:@resnet_v1_50/block4/unit_2/bottleneck_v1/conv2/BatchNorm/moving_mean"
      }
    }
  }
  attr {
    key: "use_locking"
    value {
      b: true
    }
  }
  attr {
    key: "validate_shape"
    value {
      b: true
    }
  }
}
node {
  name: "save/Assign_242"
  op: "Assign"
  input: "resnet_v1_50/block4/unit_2/bottleneck_v1/conv2/BatchNorm/moving_variance"
  input: "save/RestoreV2:242"
  attr {
    key: "T"
    value {
      type: DT_FLOAT
    }
  }
  attr {
    key: "_class"
    value {
      list {
        s: "loc:@resnet_v1_50/block4/unit_2/bottleneck_v1/conv2/BatchNorm/moving_variance"
      }
    }
  }
  attr {
    key: "use_locking"
    value {
      b: true
    }
  }
  attr {
    key: "validate_shape"
    value {
      b: true
    }
  }
}
node {
  name: "save/Assign_243"
  op: "Assign"
  input: "resnet_v1_50/block4/unit_2/bottleneck_v1/conv2/weights"
  input: "save/RestoreV2:243"
  attr {
    key: "T"
    value {
      type: DT_FLOAT
    }
  }
  attr {
    key: "_class"
    value {
      list {
        s: "loc:@resnet_v1_50/block4/unit_2/bottleneck_v1/conv2/weights"
      }
    }
  }
  attr {
    key: "use_locking"
    value {
      b: true
    }
  }
  attr {
    key: "validate_shape"
    value {
      b: true
    }
  }
}
node {
  name: "save/Assign_244"
  op: "Assign"
  input: "resnet_v1_50/block4/unit_2/bottleneck_v1/conv3/BatchNorm/beta"
  input: "save/RestoreV2:244"
  attr {
    key: "T"
    value {
      type: DT_FLOAT
    }
  }
  attr {
    key: "_class"
    value {
      list {
        s: "loc:@resnet_v1_50/block4/unit_2/bottleneck_v1/conv3/BatchNorm/beta"
      }
    }
  }
  attr {
    key: "use_locking"
    value {
      b: true
    }
  }
  attr {
    key: "validate_shape"
    value {
      b: true
    }
  }
}
node {
  name: "save/Assign_245"
  op: "Assign"
  input: "resnet_v1_50/block4/unit_2/bottleneck_v1/conv3/BatchNorm/gamma"
  input: "save/RestoreV2:245"
  attr {
    key: "T"
    value {
      type: DT_FLOAT
    }
  }
  attr {
    key: "_class"
    value {
      list {
        s: "loc:@resnet_v1_50/block4/unit_2/bottleneck_v1/conv3/BatchNorm/gamma"
      }
    }
  }
  attr {
    key: "use_locking"
    value {
      b: true
    }
  }
  attr {
    key: "validate_shape"
    value {
      b: true
    }
  }
}
node {
  name: "save/Assign_246"
  op: "Assign"
  input: "resnet_v1_50/block4/unit_2/bottleneck_v1/conv3/BatchNorm/moving_mean"
  input: "save/RestoreV2:246"
  attr {
    key: "T"
    value {
      type: DT_FLOAT
    }
  }
  attr {
    key: "_class"
    value {
      list {
        s: "loc:@resnet_v1_50/block4/unit_2/bottleneck_v1/conv3/BatchNorm/moving_mean"
      }
    }
  }
  attr {
    key: "use_locking"
    value {
      b: true
    }
  }
  attr {
    key: "validate_shape"
    value {
      b: true
    }
  }
}
node {
  name: "save/Assign_247"
  op: "Assign"
  input: "resnet_v1_50/block4/unit_2/bottleneck_v1/conv3/BatchNorm/moving_variance"
  input: "save/RestoreV2:247"
  attr {
    key: "T"
    value {
      type: DT_FLOAT
    }
  }
  attr {
    key: "_class"
    value {
      list {
        s: "loc:@resnet_v1_50/block4/unit_2/bottleneck_v1/conv3/BatchNorm/moving_variance"
      }
    }
  }
  attr {
    key: "use_locking"
    value {
      b: true
    }
  }
  attr {
    key: "validate_shape"
    value {
      b: true
    }
  }
}
node {
  name: "save/Assign_248"
  op: "Assign"
  input: "resnet_v1_50/block4/unit_2/bottleneck_v1/conv3/weights"
  input: "save/RestoreV2:248"
  attr {
    key: "T"
    value {
      type: DT_FLOAT
    }
  }
  attr {
    key: "_class"
    value {
      list {
        s: "loc:@resnet_v1_50/block4/unit_2/bottleneck_v1/conv3/weights"
      }
    }
  }
  attr {
    key: "use_locking"
    value {
      b: true
    }
  }
  attr {
    key: "validate_shape"
    value {
      b: true
    }
  }
}
node {
  name: "save/Assign_249"
  op: "Assign"
  input: "resnet_v1_50/block4/unit_3/bottleneck_v1/conv1/BatchNorm/beta"
  input: "save/RestoreV2:249"
  attr {
    key: "T"
    value {
      type: DT_FLOAT
    }
  }
  attr {
    key: "_class"
    value {
      list {
        s: "loc:@resnet_v1_50/block4/unit_3/bottleneck_v1/conv1/BatchNorm/beta"
      }
    }
  }
  attr {
    key: "use_locking"
    value {
      b: true
    }
  }
  attr {
    key: "validate_shape"
    value {
      b: true
    }
  }
}
node {
  name: "save/Assign_250"
  op: "Assign"
  input: "resnet_v1_50/block4/unit_3/bottleneck_v1/conv1/BatchNorm/gamma"
  input: "save/RestoreV2:250"
  attr {
    key: "T"
    value {
      type: DT_FLOAT
    }
  }
  attr {
    key: "_class"
    value {
      list {
        s: "loc:@resnet_v1_50/block4/unit_3/bottleneck_v1/conv1/BatchNorm/gamma"
      }
    }
  }
  attr {
    key: "use_locking"
    value {
      b: true
    }
  }
  attr {
    key: "validate_shape"
    value {
      b: true
    }
  }
}
node {
  name: "save/Assign_251"
  op: "Assign"
  input: "resnet_v1_50/block4/unit_3/bottleneck_v1/conv1/BatchNorm/moving_mean"
  input: "save/RestoreV2:251"
  attr {
    key: "T"
    value {
      type: DT_FLOAT
    }
  }
  attr {
    key: "_class"
    value {
      list {
        s: "loc:@resnet_v1_50/block4/unit_3/bottleneck_v1/conv1/BatchNorm/moving_mean"
      }
    }
  }
  attr {
    key: "use_locking"
    value {
      b: true
    }
  }
  attr {
    key: "validate_shape"
    value {
      b: true
    }
  }
}
node {
  name: "save/Assign_252"
  op: "Assign"
  input: "resnet_v1_50/block4/unit_3/bottleneck_v1/conv1/BatchNorm/moving_variance"
  input: "save/RestoreV2:252"
  attr {
    key: "T"
    value {
      type: DT_FLOAT
    }
  }
  attr {
    key: "_class"
    value {
      list {
        s: "loc:@resnet_v1_50/block4/unit_3/bottleneck_v1/conv1/BatchNorm/moving_variance"
      }
    }
  }
  attr {
    key: "use_locking"
    value {
      b: true
    }
  }
  attr {
    key: "validate_shape"
    value {
      b: true
    }
  }
}
node {
  name: "save/Assign_253"
  op: "Assign"
  input: "resnet_v1_50/block4/unit_3/bottleneck_v1/conv1/weights"
  input: "save/RestoreV2:253"
  attr {
    key: "T"
    value {
      type: DT_FLOAT
    }
  }
  attr {
    key: "_class"
    value {
      list {
        s: "loc:@resnet_v1_50/block4/unit_3/bottleneck_v1/conv1/weights"
      }
    }
  }
  attr {
    key: "use_locking"
    value {
      b: true
    }
  }
  attr {
    key: "validate_shape"
    value {
      b: true
    }
  }
}
node {
  name: "save/Assign_254"
  op: "Assign"
  input: "resnet_v1_50/block4/unit_3/bottleneck_v1/conv2/BatchNorm/beta"
  input: "save/RestoreV2:254"
  attr {
    key: "T"
    value {
      type: DT_FLOAT
    }
  }
  attr {
    key: "_class"
    value {
      list {
        s: "loc:@resnet_v1_50/block4/unit_3/bottleneck_v1/conv2/BatchNorm/beta"
      }
    }
  }
  attr {
    key: "use_locking"
    value {
      b: true
    }
  }
  attr {
    key: "validate_shape"
    value {
      b: true
    }
  }
}
node {
  name: "save/Assign_255"
  op: "Assign"
  input: "resnet_v1_50/block4/unit_3/bottleneck_v1/conv2/BatchNorm/gamma"
  input: "save/RestoreV2:255"
  attr {
    key: "T"
    value {
      type: DT_FLOAT
    }
  }
  attr {
    key: "_class"
    value {
      list {
        s: "loc:@resnet_v1_50/block4/unit_3/bottleneck_v1/conv2/BatchNorm/gamma"
      }
    }
  }
  attr {
    key: "use_locking"
    value {
      b: true
    }
  }
  attr {
    key: "validate_shape"
    value {
      b: true
    }
  }
}
node {
  name: "save/Assign_256"
  op: "Assign"
  input: "resnet_v1_50/block4/unit_3/bottleneck_v1/conv2/BatchNorm/moving_mean"
  input: "save/RestoreV2:256"
  attr {
    key: "T"
    value {
      type: DT_FLOAT
    }
  }
  attr {
    key: "_class"
    value {
      list {
        s: "loc:@resnet_v1_50/block4/unit_3/bottleneck_v1/conv2/BatchNorm/moving_mean"
      }
    }
  }
  attr {
    key: "use_locking"
    value {
      b: true
    }
  }
  attr {
    key: "validate_shape"
    value {
      b: true
    }
  }
}
node {
  name: "save/Assign_257"
  op: "Assign"
  input: "resnet_v1_50/block4/unit_3/bottleneck_v1/conv2/BatchNorm/moving_variance"
  input: "save/RestoreV2:257"
  attr {
    key: "T"
    value {
      type: DT_FLOAT
    }
  }
  attr {
    key: "_class"
    value {
      list {
        s: "loc:@resnet_v1_50/block4/unit_3/bottleneck_v1/conv2/BatchNorm/moving_variance"
      }
    }
  }
  attr {
    key: "use_locking"
    value {
      b: true
    }
  }
  attr {
    key: "validate_shape"
    value {
      b: true
    }
  }
}
node {
  name: "save/Assign_258"
  op: "Assign"
  input: "resnet_v1_50/block4/unit_3/bottleneck_v1/conv2/weights"
  input: "save/RestoreV2:258"
  attr {
    key: "T"
    value {
      type: DT_FLOAT
    }
  }
  attr {
    key: "_class"
    value {
      list {
        s: "loc:@resnet_v1_50/block4/unit_3/bottleneck_v1/conv2/weights"
      }
    }
  }
  attr {
    key: "use_locking"
    value {
      b: true
    }
  }
  attr {
    key: "validate_shape"
    value {
      b: true
    }
  }
}
node {
  name: "save/Assign_259"
  op: "Assign"
  input: "resnet_v1_50/block4/unit_3/bottleneck_v1/conv3/BatchNorm/beta"
  input: "save/RestoreV2:259"
  attr {
    key: "T"
    value {
      type: DT_FLOAT
    }
  }
  attr {
    key: "_class"
    value {
      list {
        s: "loc:@resnet_v1_50/block4/unit_3/bottleneck_v1/conv3/BatchNorm/beta"
      }
    }
  }
  attr {
    key: "use_locking"
    value {
      b: true
    }
  }
  attr {
    key: "validate_shape"
    value {
      b: true
    }
  }
}
node {
  name: "save/Assign_260"
  op: "Assign"
  input: "resnet_v1_50/block4/unit_3/bottleneck_v1/conv3/BatchNorm/gamma"
  input: "save/RestoreV2:260"
  attr {
    key: "T"
    value {
      type: DT_FLOAT
    }
  }
  attr {
    key: "_class"
    value {
      list {
        s: "loc:@resnet_v1_50/block4/unit_3/bottleneck_v1/conv3/BatchNorm/gamma"
      }
    }
  }
  attr {
    key: "use_locking"
    value {
      b: true
    }
  }
  attr {
    key: "validate_shape"
    value {
      b: true
    }
  }
}
node {
  name: "save/Assign_261"
  op: "Assign"
  input: "resnet_v1_50/block4/unit_3/bottleneck_v1/conv3/BatchNorm/moving_mean"
  input: "save/RestoreV2:261"
  attr {
    key: "T"
    value {
      type: DT_FLOAT
    }
  }
  attr {
    key: "_class"
    value {
      list {
        s: "loc:@resnet_v1_50/block4/unit_3/bottleneck_v1/conv3/BatchNorm/moving_mean"
      }
    }
  }
  attr {
    key: "use_locking"
    value {
      b: true
    }
  }
  attr {
    key: "validate_shape"
    value {
      b: true
    }
  }
}
node {
  name: "save/Assign_262"
  op: "Assign"
  input: "resnet_v1_50/block4/unit_3/bottleneck_v1/conv3/BatchNorm/moving_variance"
  input: "save/RestoreV2:262"
  attr {
    key: "T"
    value {
      type: DT_FLOAT
    }
  }
  attr {
    key: "_class"
    value {
      list {
        s: "loc:@resnet_v1_50/block4/unit_3/bottleneck_v1/conv3/BatchNorm/moving_variance"
      }
    }
  }
  attr {
    key: "use_locking"
    value {
      b: true
    }
  }
  attr {
    key: "validate_shape"
    value {
      b: true
    }
  }
}
node {
  name: "save/Assign_263"
  op: "Assign"
  input: "resnet_v1_50/block4/unit_3/bottleneck_v1/conv3/weights"
  input: "save/RestoreV2:263"
  attr {
    key: "T"
    value {
      type: DT_FLOAT
    }
  }
  attr {
    key: "_class"
    value {
      list {
        s: "loc:@resnet_v1_50/block4/unit_3/bottleneck_v1/conv3/weights"
      }
    }
  }
  attr {
    key: "use_locking"
    value {
      b: true
    }
  }
  attr {
    key: "validate_shape"
    value {
      b: true
    }
  }
}
node {
  name: "save/Assign_264"
  op: "Assign"
  input: "resnet_v1_50/conv1/BatchNorm/beta"
  input: "save/RestoreV2:264"
  attr {
    key: "T"
    value {
      type: DT_FLOAT
    }
  }
  attr {
    key: "_class"
    value {
      list {
        s: "loc:@resnet_v1_50/conv1/BatchNorm/beta"
      }
    }
  }
  attr {
    key: "use_locking"
    value {
      b: true
    }
  }
  attr {
    key: "validate_shape"
    value {
      b: true
    }
  }
}
node {
  name: "save/Assign_265"
  op: "Assign"
  input: "resnet_v1_50/conv1/BatchNorm/gamma"
  input: "save/RestoreV2:265"
  attr {
    key: "T"
    value {
      type: DT_FLOAT
    }
  }
  attr {
    key: "_class"
    value {
      list {
        s: "loc:@resnet_v1_50/conv1/BatchNorm/gamma"
      }
    }
  }
  attr {
    key: "use_locking"
    value {
      b: true
    }
  }
  attr {
    key: "validate_shape"
    value {
      b: true
    }
  }
}
node {
  name: "save/Assign_266"
  op: "Assign"
  input: "resnet_v1_50/conv1/BatchNorm/moving_mean"
  input: "save/RestoreV2:266"
  attr {
    key: "T"
    value {
      type: DT_FLOAT
    }
  }
  attr {
    key: "_class"
    value {
      list {
        s: "loc:@resnet_v1_50/conv1/BatchNorm/moving_mean"
      }
    }
  }
  attr {
    key: "use_locking"
    value {
      b: true
    }
  }
  attr {
    key: "validate_shape"
    value {
      b: true
    }
  }
}
node {
  name: "save/Assign_267"
  op: "Assign"
  input: "resnet_v1_50/conv1/BatchNorm/moving_variance"
  input: "save/RestoreV2:267"
  attr {
    key: "T"
    value {
      type: DT_FLOAT
    }
  }
  attr {
    key: "_class"
    value {
      list {
        s: "loc:@resnet_v1_50/conv1/BatchNorm/moving_variance"
      }
    }
  }
  attr {
    key: "use_locking"
    value {
      b: true
    }
  }
  attr {
    key: "validate_shape"
    value {
      b: true
    }
  }
}
node {
  name: "save/Assign_268"
  op: "Assign"
  input: "resnet_v1_50/conv1/weights"
  input: "save/RestoreV2:268"
  attr {
    key: "T"
    value {
      type: DT_FLOAT
    }
  }
  attr {
    key: "_class"
    value {
      list {
        s: "loc:@resnet_v1_50/conv1/weights"
      }
    }
  }
  attr {
    key: "use_locking"
    value {
      b: true
    }
  }
  attr {
    key: "validate_shape"
    value {
      b: true
    }
  }
}
node {
  name: "save/restore_all"
  op: "NoOp"
  input: "^save/Assign"
  input: "^save/Assign_1"
  input: "^save/Assign_10"
  input: "^save/Assign_100"
  input: "^save/Assign_101"
  input: "^save/Assign_102"
  input: "^save/Assign_103"
  input: "^save/Assign_104"
  input: "^save/Assign_105"
  input: "^save/Assign_106"
  input: "^save/Assign_107"
  input: "^save/Assign_108"
  input: "^save/Assign_109"
  input: "^save/Assign_11"
  input: "^save/Assign_110"
  input: "^save/Assign_111"
  input: "^save/Assign_112"
  input: "^save/Assign_113"
  input: "^save/Assign_114"
  input: "^save/Assign_115"
  input: "^save/Assign_116"
  input: "^save/Assign_117"
  input: "^save/Assign_118"
  input: "^save/Assign_119"
  input: "^save/Assign_12"
  input: "^save/Assign_120"
  input: "^save/Assign_121"
  input: "^save/Assign_122"
  input: "^save/Assign_123"
  input: "^save/Assign_124"
  input: "^save/Assign_125"
  input: "^save/Assign_126"
  input: "^save/Assign_127"
  input: "^save/Assign_128"
  input: "^save/Assign_129"
  input: "^save/Assign_13"
  input: "^save/Assign_130"
  input: "^save/Assign_131"
  input: "^save/Assign_132"
  input: "^save/Assign_133"
  input: "^save/Assign_134"
  input: "^save/Assign_135"
  input: "^save/Assign_136"
  input: "^save/Assign_137"
  input: "^save/Assign_138"
  input: "^save/Assign_139"
  input: "^save/Assign_14"
  input: "^save/Assign_140"
  input: "^save/Assign_141"
  input: "^save/Assign_142"
  input: "^save/Assign_143"
  input: "^save/Assign_144"
  input: "^save/Assign_145"
  input: "^save/Assign_146"
  input: "^save/Assign_147"
  input: "^save/Assign_148"
  input: "^save/Assign_149"
  input: "^save/Assign_15"
  input: "^save/Assign_150"
  input: "^save/Assign_151"
  input: "^save/Assign_152"
  input: "^save/Assign_153"
  input: "^save/Assign_154"
  input: "^save/Assign_155"
  input: "^save/Assign_156"
  input: "^save/Assign_157"
  input: "^save/Assign_158"
  input: "^save/Assign_159"
  input: "^save/Assign_16"
  input: "^save/Assign_160"
  input: "^save/Assign_161"
  input: "^save/Assign_162"
  input: "^save/Assign_163"
  input: "^save/Assign_164"
  input: "^save/Assign_165"
  input: "^save/Assign_166"
  input: "^save/Assign_167"
  input: "^save/Assign_168"
  input: "^save/Assign_169"
  input: "^save/Assign_17"
  input: "^save/Assign_170"
  input: "^save/Assign_171"
  input: "^save/Assign_172"
  input: "^save/Assign_173"
  input: "^save/Assign_174"
  input: "^save/Assign_175"
  input: "^save/Assign_176"
  input: "^save/Assign_177"
  input: "^save/Assign_178"
  input: "^save/Assign_179"
  input: "^save/Assign_18"
  input: "^save/Assign_180"
  input: "^save/Assign_181"
  input: "^save/Assign_182"
  input: "^save/Assign_183"
  input: "^save/Assign_184"
  input: "^save/Assign_185"
  input: "^save/Assign_186"
  input: "^save/Assign_187"
  input: "^save/Assign_188"
  input: "^save/Assign_189"
  input: "^save/Assign_19"
  input: "^save/Assign_190"
  input: "^save/Assign_191"
  input: "^save/Assign_192"
  input: "^save/Assign_193"
  input: "^save/Assign_194"
  input: "^save/Assign_195"
  input: "^save/Assign_196"
  input: "^save/Assign_197"
  input: "^save/Assign_198"
  input: "^save/Assign_199"
  input: "^save/Assign_2"
  input: "^save/Assign_20"
  input: "^save/Assign_200"
  input: "^save/Assign_201"
  input: "^save/Assign_202"
  input: "^save/Assign_203"
  input: "^save/Assign_204"
  input: "^save/Assign_205"
  input: "^save/Assign_206"
  input: "^save/Assign_207"
  input: "^save/Assign_208"
  input: "^save/Assign_209"
  input: "^save/Assign_21"
  input: "^save/Assign_210"
  input: "^save/Assign_211"
  input: "^save/Assign_212"
  input: "^save/Assign_213"
  input: "^save/Assign_214"
  input: "^save/Assign_215"
  input: "^save/Assign_216"
  input: "^save/Assign_217"
  input: "^save/Assign_218"
  input: "^save/Assign_219"
  input: "^save/Assign_22"
  input: "^save/Assign_220"
  input: "^save/Assign_221"
  input: "^save/Assign_222"
  input: "^save/Assign_223"
  input: "^save/Assign_224"
  input: "^save/Assign_225"
  input: "^save/Assign_226"
  input: "^save/Assign_227"
  input: "^save/Assign_228"
  input: "^save/Assign_229"
  input: "^save/Assign_23"
  input: "^save/Assign_230"
  input: "^save/Assign_231"
  input: "^save/Assign_232"
  input: "^save/Assign_233"
  input: "^save/Assign_234"
  input: "^save/Assign_235"
  input: "^save/Assign_236"
  input: "^save/Assign_237"
  input: "^save/Assign_238"
  input: "^save/Assign_239"
  input: "^save/Assign_24"
  input: "^save/Assign_240"
  input: "^save/Assign_241"
  input: "^save/Assign_242"
  input: "^save/Assign_243"
  input: "^save/Assign_244"
  input: "^save/Assign_245"
  input: "^save/Assign_246"
  input: "^save/Assign_247"
  input: "^save/Assign_248"
  input: "^save/Assign_249"
  input: "^save/Assign_25"
  input: "^save/Assign_250"
  input: "^save/Assign_251"
  input: "^save/Assign_252"
  input: "^save/Assign_253"
  input: "^save/Assign_254"
  input: "^save/Assign_255"
  input: "^save/Assign_256"
  input: "^save/Assign_257"
  input: "^save/Assign_258"
  input: "^save/Assign_259"
  input: "^save/Assign_26"
  input: "^save/Assign_260"
  input: "^save/Assign_261"
  input: "^save/Assign_262"
  input: "^save/Assign_263"
  input: "^save/Assign_264"
  input: "^save/Assign_265"
  input: "^save/Assign_266"
  input: "^save/Assign_267"
  input: "^save/Assign_268"
  input: "^save/Assign_27"
  input: "^save/Assign_28"
  input: "^save/Assign_29"
  input: "^save/Assign_3"
  input: "^save/Assign_30"
  input: "^save/Assign_31"
  input: "^save/Assign_32"
  input: "^save/Assign_33"
  input: "^save/Assign_34"
  input: "^save/Assign_35"
  input: "^save/Assign_36"
  input: "^save/Assign_37"
  input: "^save/Assign_38"
  input: "^save/Assign_39"
  input: "^save/Assign_4"
  input: "^save/Assign_40"
  input: "^save/Assign_41"
  input: "^save/Assign_42"
  input: "^save/Assign_43"
  input: "^save/Assign_44"
  input: "^save/Assign_45"
  input: "^save/Assign_46"
  input: "^save/Assign_47"
  input: "^save/Assign_48"
  input: "^save/Assign_49"
  input: "^save/Assign_5"
  input: "^save/Assign_50"
  input: "^save/Assign_51"
  input: "^save/Assign_52"
  input: "^save/Assign_53"
  input: "^save/Assign_54"
  input: "^save/Assign_55"
  input: "^save/Assign_56"
  input: "^save/Assign_57"
  input: "^save/Assign_58"
  input: "^save/Assign_59"
  input: "^save/Assign_6"
  input: "^save/Assign_60"
  input: "^save/Assign_61"
  input: "^save/Assign_62"
  input: "^save/Assign_63"
  input: "^save/Assign_64"
  input: "^save/Assign_65"
  input: "^save/Assign_66"
  input: "^save/Assign_67"
  input: "^save/Assign_68"
  input: "^save/Assign_69"
  input: "^save/Assign_7"
  input: "^save/Assign_70"
  input: "^save/Assign_71"
  input: "^save/Assign_72"
  input: "^save/Assign_73"
  input: "^save/Assign_74"
  input: "^save/Assign_75"
  input: "^save/Assign_76"
  input: "^save/Assign_77"
  input: "^save/Assign_78"
  input: "^save/Assign_79"
  input: "^save/Assign_8"
  input: "^save/Assign_80"
  input: "^save/Assign_81"
  input: "^save/Assign_82"
  input: "^save/Assign_83"
  input: "^save/Assign_84"
  input: "^save/Assign_85"
  input: "^save/Assign_86"
  input: "^save/Assign_87"
  input: "^save/Assign_88"
  input: "^save/Assign_89"
  input: "^save/Assign_9"
  input: "^save/Assign_90"
  input: "^save/Assign_91"
  input: "^save/Assign_92"
  input: "^save/Assign_93"
  input: "^save/Assign_94"
  input: "^save/Assign_95"
  input: "^save/Assign_96"
  input: "^save/Assign_97"
  input: "^save/Assign_98"
  input: "^save/Assign_99"
}
node {
  name: "init"
  op: "NoOp"
  input: "^pose/locref_pred/block4/biases/Assign"
  input: "^pose/locref_pred/block4/weights/Assign"
  input: "^pose/part_pred/block4/biases/Assign"
  input: "^pose/part_pred/block4/weights/Assign"
  input: "^resnet_v1_50/block1/unit_1/bottleneck_v1/conv1/BatchNorm/beta/Assign"
  input: "^resnet_v1_50/block1/unit_1/bottleneck_v1/conv1/BatchNorm/gamma/Assign"
  input: "^resnet_v1_50/block1/unit_1/bottleneck_v1/conv1/BatchNorm/moving_mean/Assign"
  input: "^resnet_v1_50/block1/unit_1/bottleneck_v1/conv1/BatchNorm/moving_variance/Assign"
  input: "^resnet_v1_50/block1/unit_1/bottleneck_v1/conv1/weights/Assign"
  input: "^resnet_v1_50/block1/unit_1/bottleneck_v1/conv2/BatchNorm/beta/Assign"
  input: "^resnet_v1_50/block1/unit_1/bottleneck_v1/conv2/BatchNorm/gamma/Assign"
  input: "^resnet_v1_50/block1/unit_1/bottleneck_v1/conv2/BatchNorm/moving_mean/Assign"
  input: "^resnet_v1_50/block1/unit_1/bottleneck_v1/conv2/BatchNorm/moving_variance/Assign"
  input: "^resnet_v1_50/block1/unit_1/bottleneck_v1/conv2/weights/Assign"
  input: "^resnet_v1_50/block1/unit_1/bottleneck_v1/conv3/BatchNorm/beta/Assign"
  input: "^resnet_v1_50/block1/unit_1/bottleneck_v1/conv3/BatchNorm/gamma/Assign"
  input: "^resnet_v1_50/block1/unit_1/bottleneck_v1/conv3/BatchNorm/moving_mean/Assign"
  input: "^resnet_v1_50/block1/unit_1/bottleneck_v1/conv3/BatchNorm/moving_variance/Assign"
  input: "^resnet_v1_50/block1/unit_1/bottleneck_v1/conv3/weights/Assign"
  input: "^resnet_v1_50/block1/unit_1/bottleneck_v1/shortcut/BatchNorm/beta/Assign"
  input: "^resnet_v1_50/block1/unit_1/bottleneck_v1/shortcut/BatchNorm/gamma/Assign"
  input: "^resnet_v1_50/block1/unit_1/bottleneck_v1/shortcut/BatchNorm/moving_mean/Assign"
  input: "^resnet_v1_50/block1/unit_1/bottleneck_v1/shortcut/BatchNorm/moving_variance/Assign"
  input: "^resnet_v1_50/block1/unit_1/bottleneck_v1/shortcut/weights/Assign"
  input: "^resnet_v1_50/block1/unit_2/bottleneck_v1/conv1/BatchNorm/beta/Assign"
  input: "^resnet_v1_50/block1/unit_2/bottleneck_v1/conv1/BatchNorm/gamma/Assign"
  input: "^resnet_v1_50/block1/unit_2/bottleneck_v1/conv1/BatchNorm/moving_mean/Assign"
  input: "^resnet_v1_50/block1/unit_2/bottleneck_v1/conv1/BatchNorm/moving_variance/Assign"
  input: "^resnet_v1_50/block1/unit_2/bottleneck_v1/conv1/weights/Assign"
  input: "^resnet_v1_50/block1/unit_2/bottleneck_v1/conv2/BatchNorm/beta/Assign"
  input: "^resnet_v1_50/block1/unit_2/bottleneck_v1/conv2/BatchNorm/gamma/Assign"
  input: "^resnet_v1_50/block1/unit_2/bottleneck_v1/conv2/BatchNorm/moving_mean/Assign"
  input: "^resnet_v1_50/block1/unit_2/bottleneck_v1/conv2/BatchNorm/moving_variance/Assign"
  input: "^resnet_v1_50/block1/unit_2/bottleneck_v1/conv2/weights/Assign"
  input: "^resnet_v1_50/block1/unit_2/bottleneck_v1/conv3/BatchNorm/beta/Assign"
  input: "^resnet_v1_50/block1/unit_2/bottleneck_v1/conv3/BatchNorm/gamma/Assign"
  input: "^resnet_v1_50/block1/unit_2/bottleneck_v1/conv3/BatchNorm/moving_mean/Assign"
  input: "^resnet_v1_50/block1/unit_2/bottleneck_v1/conv3/BatchNorm/moving_variance/Assign"
  input: "^resnet_v1_50/block1/unit_2/bottleneck_v1/conv3/weights/Assign"
  input: "^resnet_v1_50/block1/unit_3/bottleneck_v1/conv1/BatchNorm/beta/Assign"
  input: "^resnet_v1_50/block1/unit_3/bottleneck_v1/conv1/BatchNorm/gamma/Assign"
  input: "^resnet_v1_50/block1/unit_3/bottleneck_v1/conv1/BatchNorm/moving_mean/Assign"
  input: "^resnet_v1_50/block1/unit_3/bottleneck_v1/conv1/BatchNorm/moving_variance/Assign"
  input: "^resnet_v1_50/block1/unit_3/bottleneck_v1/conv1/weights/Assign"
  input: "^resnet_v1_50/block1/unit_3/bottleneck_v1/conv2/BatchNorm/beta/Assign"
  input: "^resnet_v1_50/block1/unit_3/bottleneck_v1/conv2/BatchNorm/gamma/Assign"
  input: "^resnet_v1_50/block1/unit_3/bottleneck_v1/conv2/BatchNorm/moving_mean/Assign"
  input: "^resnet_v1_50/block1/unit_3/bottleneck_v1/conv2/BatchNorm/moving_variance/Assign"
  input: "^resnet_v1_50/block1/unit_3/bottleneck_v1/conv2/weights/Assign"
  input: "^resnet_v1_50/block1/unit_3/bottleneck_v1/conv3/BatchNorm/beta/Assign"
  input: "^resnet_v1_50/block1/unit_3/bottleneck_v1/conv3/BatchNorm/gamma/Assign"
  input: "^resnet_v1_50/block1/unit_3/bottleneck_v1/conv3/BatchNorm/moving_mean/Assign"
  input: "^resnet_v1_50/block1/unit_3/bottleneck_v1/conv3/BatchNorm/moving_variance/Assign"
  input: "^resnet_v1_50/block1/unit_3/bottleneck_v1/conv3/weights/Assign"
  input: "^resnet_v1_50/block2/unit_1/bottleneck_v1/conv1/BatchNorm/beta/Assign"
  input: "^resnet_v1_50/block2/unit_1/bottleneck_v1/conv1/BatchNorm/gamma/Assign"
  input: "^resnet_v1_50/block2/unit_1/bottleneck_v1/conv1/BatchNorm/moving_mean/Assign"
  input: "^resnet_v1_50/block2/unit_1/bottleneck_v1/conv1/BatchNorm/moving_variance/Assign"
  input: "^resnet_v1_50/block2/unit_1/bottleneck_v1/conv1/weights/Assign"
  input: "^resnet_v1_50/block2/unit_1/bottleneck_v1/conv2/BatchNorm/beta/Assign"
  input: "^resnet_v1_50/block2/unit_1/bottleneck_v1/conv2/BatchNorm/gamma/Assign"
  input: "^resnet_v1_50/block2/unit_1/bottleneck_v1/conv2/BatchNorm/moving_mean/Assign"
  input: "^resnet_v1_50/block2/unit_1/bottleneck_v1/conv2/BatchNorm/moving_variance/Assign"
  input: "^resnet_v1_50/block2/unit_1/bottleneck_v1/conv2/weights/Assign"
  input: "^resnet_v1_50/block2/unit_1/bottleneck_v1/conv3/BatchNorm/beta/Assign"
  input: "^resnet_v1_50/block2/unit_1/bottleneck_v1/conv3/BatchNorm/gamma/Assign"
  input: "^resnet_v1_50/block2/unit_1/bottleneck_v1/conv3/BatchNorm/moving_mean/Assign"
  input: "^resnet_v1_50/block2/unit_1/bottleneck_v1/conv3/BatchNorm/moving_variance/Assign"
  input: "^resnet_v1_50/block2/unit_1/bottleneck_v1/conv3/weights/Assign"
  input: "^resnet_v1_50/block2/unit_1/bottleneck_v1/shortcut/BatchNorm/beta/Assign"
  input: "^resnet_v1_50/block2/unit_1/bottleneck_v1/shortcut/BatchNorm/gamma/Assign"
  input: "^resnet_v1_50/block2/unit_1/bottleneck_v1/shortcut/BatchNorm/moving_mean/Assign"
  input: "^resnet_v1_50/block2/unit_1/bottleneck_v1/shortcut/BatchNorm/moving_variance/Assign"
  input: "^resnet_v1_50/block2/unit_1/bottleneck_v1/shortcut/weights/Assign"
  input: "^resnet_v1_50/block2/unit_2/bottleneck_v1/conv1/BatchNorm/beta/Assign"
  input: "^resnet_v1_50/block2/unit_2/bottleneck_v1/conv1/BatchNorm/gamma/Assign"
  input: "^resnet_v1_50/block2/unit_2/bottleneck_v1/conv1/BatchNorm/moving_mean/Assign"
  input: "^resnet_v1_50/block2/unit_2/bottleneck_v1/conv1/BatchNorm/moving_variance/Assign"
  input: "^resnet_v1_50/block2/unit_2/bottleneck_v1/conv1/weights/Assign"
  input: "^resnet_v1_50/block2/unit_2/bottleneck_v1/conv2/BatchNorm/beta/Assign"
  input: "^resnet_v1_50/block2/unit_2/bottleneck_v1/conv2/BatchNorm/gamma/Assign"
  input: "^resnet_v1_50/block2/unit_2/bottleneck_v1/conv2/BatchNorm/moving_mean/Assign"
  input: "^resnet_v1_50/block2/unit_2/bottleneck_v1/conv2/BatchNorm/moving_variance/Assign"
  input: "^resnet_v1_50/block2/unit_2/bottleneck_v1/conv2/weights/Assign"
  input: "^resnet_v1_50/block2/unit_2/bottleneck_v1/conv3/BatchNorm/beta/Assign"
  input: "^resnet_v1_50/block2/unit_2/bottleneck_v1/conv3/BatchNorm/gamma/Assign"
  input: "^resnet_v1_50/block2/unit_2/bottleneck_v1/conv3/BatchNorm/moving_mean/Assign"
  input: "^resnet_v1_50/block2/unit_2/bottleneck_v1/conv3/BatchNorm/moving_variance/Assign"
  input: "^resnet_v1_50/block2/unit_2/bottleneck_v1/conv3/weights/Assign"
  input: "^resnet_v1_50/block2/unit_3/bottleneck_v1/conv1/BatchNorm/beta/Assign"
  input: "^resnet_v1_50/block2/unit_3/bottleneck_v1/conv1/BatchNorm/gamma/Assign"
  input: "^resnet_v1_50/block2/unit_3/bottleneck_v1/conv1/BatchNorm/moving_mean/Assign"
  input: "^resnet_v1_50/block2/unit_3/bottleneck_v1/conv1/BatchNorm/moving_variance/Assign"
  input: "^resnet_v1_50/block2/unit_3/bottleneck_v1/conv1/weights/Assign"
  input: "^resnet_v1_50/block2/unit_3/bottleneck_v1/conv2/BatchNorm/beta/Assign"
  input: "^resnet_v1_50/block2/unit_3/bottleneck_v1/conv2/BatchNorm/gamma/Assign"
  input: "^resnet_v1_50/block2/unit_3/bottleneck_v1/conv2/BatchNorm/moving_mean/Assign"
  input: "^resnet_v1_50/block2/unit_3/bottleneck_v1/conv2/BatchNorm/moving_variance/Assign"
  input: "^resnet_v1_50/block2/unit_3/bottleneck_v1/conv2/weights/Assign"
  input: "^resnet_v1_50/block2/unit_3/bottleneck_v1/conv3/BatchNorm/beta/Assign"
  input: "^resnet_v1_50/block2/unit_3/bottleneck_v1/conv3/BatchNorm/gamma/Assign"
  input: "^resnet_v1_50/block2/unit_3/bottleneck_v1/conv3/BatchNorm/moving_mean/Assign"
  input: "^resnet_v1_50/block2/unit_3/bottleneck_v1/conv3/BatchNorm/moving_variance/Assign"
  input: "^resnet_v1_50/block2/unit_3/bottleneck_v1/conv3/weights/Assign"
  input: "^resnet_v1_50/block2/unit_4/bottleneck_v1/conv1/BatchNorm/beta/Assign"
  input: "^resnet_v1_50/block2/unit_4/bottleneck_v1/conv1/BatchNorm/gamma/Assign"
  input: "^resnet_v1_50/block2/unit_4/bottleneck_v1/conv1/BatchNorm/moving_mean/Assign"
  input: "^resnet_v1_50/block2/unit_4/bottleneck_v1/conv1/BatchNorm/moving_variance/Assign"
  input: "^resnet_v1_50/block2/unit_4/bottleneck_v1/conv1/weights/Assign"
  input: "^resnet_v1_50/block2/unit_4/bottleneck_v1/conv2/BatchNorm/beta/Assign"
  input: "^resnet_v1_50/block2/unit_4/bottleneck_v1/conv2/BatchNorm/gamma/Assign"
  input: "^resnet_v1_50/block2/unit_4/bottleneck_v1/conv2/BatchNorm/moving_mean/Assign"
  input: "^resnet_v1_50/block2/unit_4/bottleneck_v1/conv2/BatchNorm/moving_variance/Assign"
  input: "^resnet_v1_50/block2/unit_4/bottleneck_v1/conv2/weights/Assign"
  input: "^resnet_v1_50/block2/unit_4/bottleneck_v1/conv3/BatchNorm/beta/Assign"
  input: "^resnet_v1_50/block2/unit_4/bottleneck_v1/conv3/BatchNorm/gamma/Assign"
  input: "^resnet_v1_50/block2/unit_4/bottleneck_v1/conv3/BatchNorm/moving_mean/Assign"
  input: "^resnet_v1_50/block2/unit_4/bottleneck_v1/conv3/BatchNorm/moving_variance/Assign"
  input: "^resnet_v1_50/block2/unit_4/bottleneck_v1/conv3/weights/Assign"
  input: "^resnet_v1_50/block3/unit_1/bottleneck_v1/conv1/BatchNorm/beta/Assign"
  input: "^resnet_v1_50/block3/unit_1/bottleneck_v1/conv1/BatchNorm/gamma/Assign"
  input: "^resnet_v1_50/block3/unit_1/bottleneck_v1/conv1/BatchNorm/moving_mean/Assign"
  input: "^resnet_v1_50/block3/unit_1/bottleneck_v1/conv1/BatchNorm/moving_variance/Assign"
  input: "^resnet_v1_50/block3/unit_1/bottleneck_v1/conv1/weights/Assign"
  input: "^resnet_v1_50/block3/unit_1/bottleneck_v1/conv2/BatchNorm/beta/Assign"
  input: "^resnet_v1_50/block3/unit_1/bottleneck_v1/conv2/BatchNorm/gamma/Assign"
  input: "^resnet_v1_50/block3/unit_1/bottleneck_v1/conv2/BatchNorm/moving_mean/Assign"
  input: "^resnet_v1_50/block3/unit_1/bottleneck_v1/conv2/BatchNorm/moving_variance/Assign"
  input: "^resnet_v1_50/block3/unit_1/bottleneck_v1/conv2/weights/Assign"
  input: "^resnet_v1_50/block3/unit_1/bottleneck_v1/conv3/BatchNorm/beta/Assign"
  input: "^resnet_v1_50/block3/unit_1/bottleneck_v1/conv3/BatchNorm/gamma/Assign"
  input: "^resnet_v1_50/block3/unit_1/bottleneck_v1/conv3/BatchNorm/moving_mean/Assign"
  input: "^resnet_v1_50/block3/unit_1/bottleneck_v1/conv3/BatchNorm/moving_variance/Assign"
  input: "^resnet_v1_50/block3/unit_1/bottleneck_v1/conv3/weights/Assign"
  input: "^resnet_v1_50/block3/unit_1/bottleneck_v1/shortcut/BatchNorm/beta/Assign"
  input: "^resnet_v1_50/block3/unit_1/bottleneck_v1/shortcut/BatchNorm/gamma/Assign"
  input: "^resnet_v1_50/block3/unit_1/bottleneck_v1/shortcut/BatchNorm/moving_mean/Assign"
  input: "^resnet_v1_50/block3/unit_1/bottleneck_v1/shortcut/BatchNorm/moving_variance/Assign"
  input: "^resnet_v1_50/block3/unit_1/bottleneck_v1/shortcut/weights/Assign"
  input: "^resnet_v1_50/block3/unit_2/bottleneck_v1/conv1/BatchNorm/beta/Assign"
  input: "^resnet_v1_50/block3/unit_2/bottleneck_v1/conv1/BatchNorm/gamma/Assign"
  input: "^resnet_v1_50/block3/unit_2/bottleneck_v1/conv1/BatchNorm/moving_mean/Assign"
  input: "^resnet_v1_50/block3/unit_2/bottleneck_v1/conv1/BatchNorm/moving_variance/Assign"
  input: "^resnet_v1_50/block3/unit_2/bottleneck_v1/conv1/weights/Assign"
  input: "^resnet_v1_50/block3/unit_2/bottleneck_v1/conv2/BatchNorm/beta/Assign"
  input: "^resnet_v1_50/block3/unit_2/bottleneck_v1/conv2/BatchNorm/gamma/Assign"
  input: "^resnet_v1_50/block3/unit_2/bottleneck_v1/conv2/BatchNorm/moving_mean/Assign"
  input: "^resnet_v1_50/block3/unit_2/bottleneck_v1/conv2/BatchNorm/moving_variance/Assign"
  input: "^resnet_v1_50/block3/unit_2/bottleneck_v1/conv2/weights/Assign"
  input: "^resnet_v1_50/block3/unit_2/bottleneck_v1/conv3/BatchNorm/beta/Assign"
  input: "^resnet_v1_50/block3/unit_2/bottleneck_v1/conv3/BatchNorm/gamma/Assign"
  input: "^resnet_v1_50/block3/unit_2/bottleneck_v1/conv3/BatchNorm/moving_mean/Assign"
  input: "^resnet_v1_50/block3/unit_2/bottleneck_v1/conv3/BatchNorm/moving_variance/Assign"
  input: "^resnet_v1_50/block3/unit_2/bottleneck_v1/conv3/weights/Assign"
  input: "^resnet_v1_50/block3/unit_3/bottleneck_v1/conv1/BatchNorm/beta/Assign"
  input: "^resnet_v1_50/block3/unit_3/bottleneck_v1/conv1/BatchNorm/gamma/Assign"
  input: "^resnet_v1_50/block3/unit_3/bottleneck_v1/conv1/BatchNorm/moving_mean/Assign"
  input: "^resnet_v1_50/block3/unit_3/bottleneck_v1/conv1/BatchNorm/moving_variance/Assign"
  input: "^resnet_v1_50/block3/unit_3/bottleneck_v1/conv1/weights/Assign"
  input: "^resnet_v1_50/block3/unit_3/bottleneck_v1/conv2/BatchNorm/beta/Assign"
  input: "^resnet_v1_50/block3/unit_3/bottleneck_v1/conv2/BatchNorm/gamma/Assign"
  input: "^resnet_v1_50/block3/unit_3/bottleneck_v1/conv2/BatchNorm/moving_mean/Assign"
  input: "^resnet_v1_50/block3/unit_3/bottleneck_v1/conv2/BatchNorm/moving_variance/Assign"
  input: "^resnet_v1_50/block3/unit_3/bottleneck_v1/conv2/weights/Assign"
  input: "^resnet_v1_50/block3/unit_3/bottleneck_v1/conv3/BatchNorm/beta/Assign"
  input: "^resnet_v1_50/block3/unit_3/bottleneck_v1/conv3/BatchNorm/gamma/Assign"
  input: "^resnet_v1_50/block3/unit_3/bottleneck_v1/conv3/BatchNorm/moving_mean/Assign"
  input: "^resnet_v1_50/block3/unit_3/bottleneck_v1/conv3/BatchNorm/moving_variance/Assign"
  input: "^resnet_v1_50/block3/unit_3/bottleneck_v1/conv3/weights/Assign"
  input: "^resnet_v1_50/block3/unit_4/bottleneck_v1/conv1/BatchNorm/beta/Assign"
  input: "^resnet_v1_50/block3/unit_4/bottleneck_v1/conv1/BatchNorm/gamma/Assign"
  input: "^resnet_v1_50/block3/unit_4/bottleneck_v1/conv1/BatchNorm/moving_mean/Assign"
  input: "^resnet_v1_50/block3/unit_4/bottleneck_v1/conv1/BatchNorm/moving_variance/Assign"
  input: "^resnet_v1_50/block3/unit_4/bottleneck_v1/conv1/weights/Assign"
  input: "^resnet_v1_50/block3/unit_4/bottleneck_v1/conv2/BatchNorm/beta/Assign"
  input: "^resnet_v1_50/block3/unit_4/bottleneck_v1/conv2/BatchNorm/gamma/Assign"
  input: "^resnet_v1_50/block3/unit_4/bottleneck_v1/conv2/BatchNorm/moving_mean/Assign"
  input: "^resnet_v1_50/block3/unit_4/bottleneck_v1/conv2/BatchNorm/moving_variance/Assign"
  input: "^resnet_v1_50/block3/unit_4/bottleneck_v1/conv2/weights/Assign"
  input: "^resnet_v1_50/block3/unit_4/bottleneck_v1/conv3/BatchNorm/beta/Assign"
  input: "^resnet_v1_50/block3/unit_4/bottleneck_v1/conv3/BatchNorm/gamma/Assign"
  input: "^resnet_v1_50/block3/unit_4/bottleneck_v1/conv3/BatchNorm/moving_mean/Assign"
  input: "^resnet_v1_50/block3/unit_4/bottleneck_v1/conv3/BatchNorm/moving_variance/Assign"
  input: "^resnet_v1_50/block3/unit_4/bottleneck_v1/conv3/weights/Assign"
  input: "^resnet_v1_50/block3/unit_5/bottleneck_v1/conv1/BatchNorm/beta/Assign"
  input: "^resnet_v1_50/block3/unit_5/bottleneck_v1/conv1/BatchNorm/gamma/Assign"
  input: "^resnet_v1_50/block3/unit_5/bottleneck_v1/conv1/BatchNorm/moving_mean/Assign"
  input: "^resnet_v1_50/block3/unit_5/bottleneck_v1/conv1/BatchNorm/moving_variance/Assign"
  input: "^resnet_v1_50/block3/unit_5/bottleneck_v1/conv1/weights/Assign"
  input: "^resnet_v1_50/block3/unit_5/bottleneck_v1/conv2/BatchNorm/beta/Assign"
  input: "^resnet_v1_50/block3/unit_5/bottleneck_v1/conv2/BatchNorm/gamma/Assign"
  input: "^resnet_v1_50/block3/unit_5/bottleneck_v1/conv2/BatchNorm/moving_mean/Assign"
  input: "^resnet_v1_50/block3/unit_5/bottleneck_v1/conv2/BatchNorm/moving_variance/Assign"
  input: "^resnet_v1_50/block3/unit_5/bottleneck_v1/conv2/weights/Assign"
  input: "^resnet_v1_50/block3/unit_5/bottleneck_v1/conv3/BatchNorm/beta/Assign"
  input: "^resnet_v1_50/block3/unit_5/bottleneck_v1/conv3/BatchNorm/gamma/Assign"
  input: "^resnet_v1_50/block3/unit_5/bottleneck_v1/conv3/BatchNorm/moving_mean/Assign"
  input: "^resnet_v1_50/block3/unit_5/bottleneck_v1/conv3/BatchNorm/moving_variance/Assign"
  input: "^resnet_v1_50/block3/unit_5/bottleneck_v1/conv3/weights/Assign"
  input: "^resnet_v1_50/block3/unit_6/bottleneck_v1/conv1/BatchNorm/beta/Assign"
  input: "^resnet_v1_50/block3/unit_6/bottleneck_v1/conv1/BatchNorm/gamma/Assign"
  input: "^resnet_v1_50/block3/unit_6/bottleneck_v1/conv1/BatchNorm/moving_mean/Assign"
  input: "^resnet_v1_50/block3/unit_6/bottleneck_v1/conv1/BatchNorm/moving_variance/Assign"
  input: "^resnet_v1_50/block3/unit_6/bottleneck_v1/conv1/weights/Assign"
  input: "^resnet_v1_50/block3/unit_6/bottleneck_v1/conv2/BatchNorm/beta/Assign"
  input: "^resnet_v1_50/block3/unit_6/bottleneck_v1/conv2/BatchNorm/gamma/Assign"
  input: "^resnet_v1_50/block3/unit_6/bottleneck_v1/conv2/BatchNorm/moving_mean/Assign"
  input: "^resnet_v1_50/block3/unit_6/bottleneck_v1/conv2/BatchNorm/moving_variance/Assign"
  input: "^resnet_v1_50/block3/unit_6/bottleneck_v1/conv2/weights/Assign"
  input: "^resnet_v1_50/block3/unit_6/bottleneck_v1/conv3/BatchNorm/beta/Assign"
  input: "^resnet_v1_50/block3/unit_6/bottleneck_v1/conv3/BatchNorm/gamma/Assign"
  input: "^resnet_v1_50/block3/unit_6/bottleneck_v1/conv3/BatchNorm/moving_mean/Assign"
  input: "^resnet_v1_50/block3/unit_6/bottleneck_v1/conv3/BatchNorm/moving_variance/Assign"
  input: "^resnet_v1_50/block3/unit_6/bottleneck_v1/conv3/weights/Assign"
  input: "^resnet_v1_50/block4/unit_1/bottleneck_v1/conv1/BatchNorm/beta/Assign"
  input: "^resnet_v1_50/block4/unit_1/bottleneck_v1/conv1/BatchNorm/gamma/Assign"
  input: "^resnet_v1_50/block4/unit_1/bottleneck_v1/conv1/BatchNorm/moving_mean/Assign"
  input: "^resnet_v1_50/block4/unit_1/bottleneck_v1/conv1/BatchNorm/moving_variance/Assign"
  input: "^resnet_v1_50/block4/unit_1/bottleneck_v1/conv1/weights/Assign"
  input: "^resnet_v1_50/block4/unit_1/bottleneck_v1/conv2/BatchNorm/beta/Assign"
  input: "^resnet_v1_50/block4/unit_1/bottleneck_v1/conv2/BatchNorm/gamma/Assign"
  input: "^resnet_v1_50/block4/unit_1/bottleneck_v1/conv2/BatchNorm/moving_mean/Assign"
  input: "^resnet_v1_50/block4/unit_1/bottleneck_v1/conv2/BatchNorm/moving_variance/Assign"
  input: "^resnet_v1_50/block4/unit_1/bottleneck_v1/conv2/weights/Assign"
  input: "^resnet_v1_50/block4/unit_1/bottleneck_v1/conv3/BatchNorm/beta/Assign"
  input: "^resnet_v1_50/block4/unit_1/bottleneck_v1/conv3/BatchNorm/gamma/Assign"
  input: "^resnet_v1_50/block4/unit_1/bottleneck_v1/conv3/BatchNorm/moving_mean/Assign"
  input: "^resnet_v1_50/block4/unit_1/bottleneck_v1/conv3/BatchNorm/moving_variance/Assign"
  input: "^resnet_v1_50/block4/unit_1/bottleneck_v1/conv3/weights/Assign"
  input: "^resnet_v1_50/block4/unit_1/bottleneck_v1/shortcut/BatchNorm/beta/Assign"
  input: "^resnet_v1_50/block4/unit_1/bottleneck_v1/shortcut/BatchNorm/gamma/Assign"
  input: "^resnet_v1_50/block4/unit_1/bottleneck_v1/shortcut/BatchNorm/moving_mean/Assign"
  input: "^resnet_v1_50/block4/unit_1/bottleneck_v1/shortcut/BatchNorm/moving_variance/Assign"
  input: "^resnet_v1_50/block4/unit_1/bottleneck_v1/shortcut/weights/Assign"
  input: "^resnet_v1_50/block4/unit_2/bottleneck_v1/conv1/BatchNorm/beta/Assign"
  input: "^resnet_v1_50/block4/unit_2/bottleneck_v1/conv1/BatchNorm/gamma/Assign"
  input: "^resnet_v1_50/block4/unit_2/bottleneck_v1/conv1/BatchNorm/moving_mean/Assign"
  input: "^resnet_v1_50/block4/unit_2/bottleneck_v1/conv1/BatchNorm/moving_variance/Assign"
  input: "^resnet_v1_50/block4/unit_2/bottleneck_v1/conv1/weights/Assign"
  input: "^resnet_v1_50/block4/unit_2/bottleneck_v1/conv2/BatchNorm/beta/Assign"
  input: "^resnet_v1_50/block4/unit_2/bottleneck_v1/conv2/BatchNorm/gamma/Assign"
  input: "^resnet_v1_50/block4/unit_2/bottleneck_v1/conv2/BatchNorm/moving_mean/Assign"
  input: "^resnet_v1_50/block4/unit_2/bottleneck_v1/conv2/BatchNorm/moving_variance/Assign"
  input: "^resnet_v1_50/block4/unit_2/bottleneck_v1/conv2/weights/Assign"
  input: "^resnet_v1_50/block4/unit_2/bottleneck_v1/conv3/BatchNorm/beta/Assign"
  input: "^resnet_v1_50/block4/unit_2/bottleneck_v1/conv3/BatchNorm/gamma/Assign"
  input: "^resnet_v1_50/block4/unit_2/bottleneck_v1/conv3/BatchNorm/moving_mean/Assign"
  input: "^resnet_v1_50/block4/unit_2/bottleneck_v1/conv3/BatchNorm/moving_variance/Assign"
  input: "^resnet_v1_50/block4/unit_2/bottleneck_v1/conv3/weights/Assign"
  input: "^resnet_v1_50/block4/unit_3/bottleneck_v1/conv1/BatchNorm/beta/Assign"
  input: "^resnet_v1_50/block4/unit_3/bottleneck_v1/conv1/BatchNorm/gamma/Assign"
  input: "^resnet_v1_50/block4/unit_3/bottleneck_v1/conv1/BatchNorm/moving_mean/Assign"
  input: "^resnet_v1_50/block4/unit_3/bottleneck_v1/conv1/BatchNorm/moving_variance/Assign"
  input: "^resnet_v1_50/block4/unit_3/bottleneck_v1/conv1/weights/Assign"
  input: "^resnet_v1_50/block4/unit_3/bottleneck_v1/conv2/BatchNorm/beta/Assign"
  input: "^resnet_v1_50/block4/unit_3/bottleneck_v1/conv2/BatchNorm/gamma/Assign"
  input: "^resnet_v1_50/block4/unit_3/bottleneck_v1/conv2/BatchNorm/moving_mean/Assign"
  input: "^resnet_v1_50/block4/unit_3/bottleneck_v1/conv2/BatchNorm/moving_variance/Assign"
  input: "^resnet_v1_50/block4/unit_3/bottleneck_v1/conv2/weights/Assign"
  input: "^resnet_v1_50/block4/unit_3/bottleneck_v1/conv3/BatchNorm/beta/Assign"
  input: "^resnet_v1_50/block4/unit_3/bottleneck_v1/conv3/BatchNorm/gamma/Assign"
  input: "^resnet_v1_50/block4/unit_3/bottleneck_v1/conv3/BatchNorm/moving_mean/Assign"
  input: "^resnet_v1_50/block4/unit_3/bottleneck_v1/conv3/BatchNorm/moving_variance/Assign"
  input: "^resnet_v1_50/block4/unit_3/bottleneck_v1/conv3/weights/Assign"
  input: "^resnet_v1_50/conv1/BatchNorm/beta/Assign"
  input: "^resnet_v1_50/conv1/BatchNorm/gamma/Assign"
  input: "^resnet_v1_50/conv1/BatchNorm/moving_mean/Assign"
  input: "^resnet_v1_50/conv1/BatchNorm/moving_variance/Assign"
  input: "^resnet_v1_50/conv1/weights/Assign"
}
node {
  name: "init_1"
  op: "NoOp"
}
versions {
  producer: 134
}
